{"format": "graph-model", "generatedBy": "2.3.0", "convertedBy": "TensorFlow.js Converter v3.15.0", "signature": {"inputs": {"input_0": {"name": "input_0:0", "dtype": "DT_FLOAT", "tensorShape": {"dim": [{"size": "-1"}, {"size": "608"}, {"size": "608"}, {"size": "3"}]}}}, "outputs": {"convn_160": {"name": "Identity_2:0", "dtype": "DT_FLOAT", "tensorShape": {"dim": [{"size": "-1"}, {"size": "19"}, {"size": "19"}, {"size": "255"}]}}, "convn_149": {"name": "Identity_1:0", "dtype": "DT_FLOAT", "tensorShape": {"dim": [{"size": "-1"}, {"size": "38"}, {"size": "38"}, {"size": "255"}]}}, "convn_138": {"name": "Identity:0", "dtype": "DT_FLOAT", "tensorShape": {"dim": [{"size": "-1"}, {"size": "76"}, {"size": "76"}, {"size": "255"}]}}}}, "modelTopology": {"node": [{"name": "unknown_211", "op": "Const", "attr": {"value": {"tensor": {"dtype": "DT_FLOAT", "tensorShape": {"dim": [{"size": "3"}, {"size": "3"}, {"size": "128"}, {"size": "256"}]}}}, "dtype": {"type": "DT_FLOAT"}}}, {"name": "unknown_212", "op": "Const", "attr": {"dtype": {"type": "DT_FLOAT"}, "value": {"tensor": {"dtype": "DT_FLOAT", "tensorShape": {"dim": [{"size": "256"}]}}}}}, {"name": "unknown_217", "op": "Const", "attr": {"dtype": {"type": "DT_FLOAT"}, "value": {"tensor": {"dtype": "DT_FLOAT", "tensorShape": {"dim": [{"size": "1"}, {"size": "1"}, {"size": "256"}, {"size": "255"}]}}}}}, {"name": "unknown_218", "op": "Const", "attr": {"dtype": {"type": "DT_FLOAT"}, "value": {"tensor": {"dtype": "DT_FLOAT", "tensorShape": {"dim": [{"size": "255"}]}}}}}, {"name": "unknown_209", "op": "Const", "attr": {"dtype": {"type": "DT_FLOAT"}, "value": {"tensor": {"dtype": "DT_FLOAT", "tensorShape": {"dim": [{"size": "3"}, {"size": "3"}, {"size": "256"}, {"size": "512"}]}}}}}, {"name": "unknown_210", "op": "Const", "attr": {"value": {"tensor": {"dtype": "DT_FLOAT", "tensorShape": {"dim": [{"size": "512"}]}}}, "dtype": {"type": "DT_FLOAT"}}}, {"name": "unknown_215", "op": "Const", "attr": {"value": {"tensor": {"dtype": "DT_FLOAT", "tensorShape": {"dim": [{"size": "1"}, {"size": "1"}, {"size": "512"}, {"size": "255"}]}}}, "dtype": {"type": "DT_FLOAT"}}}, {"name": "unknown_216", "op": "Const", "attr": {"dtype": {"type": "DT_FLOAT"}, "value": {"tensor": {"dtype": "DT_FLOAT", "tensorShape": {"dim": [{"size": "255"}]}}}}}, {"name": "unknown_171", "op": "Const", "attr": {"dtype": {"type": "DT_FLOAT"}, "value": {"tensor": {"dtype": "DT_FLOAT", "tensorShape": {"dim": [{"size": "1"}, {"size": "1"}, {"size": "256"}, {"size": "128"}]}}}}}, {"name": "unknown_172", "op": "Const", "attr": {"value": {"tensor": {"dtype": "DT_FLOAT", "tensorShape": {"dim": [{"size": "128"}]}}}, "dtype": {"type": "DT_FLOAT"}}}, {"name": "unknown_169", "op": "Const", "attr": {"value": {"tensor": {"dtype": "DT_FLOAT", "tensorShape": {"dim": [{"size": "1"}, {"size": "1"}, {"size": "256"}, {"size": "128"}]}}}, "dtype": {"type": "DT_FLOAT"}}}, {"name": "unknown_170", "op": "Const", "attr": {"dtype": {"type": "DT_FLOAT"}, "value": {"tensor": {"dtype": "DT_FLOAT", "tensorShape": {"dim": [{"size": "128"}]}}}}}, {"name": "StatefulPartitionedCall/Yolo_v4/upsamp_128/strided_slice/stack", "op": "Const", "attr": {"value": {"tensor": {"dtype": "DT_INT32", "tensorShape": {"dim": [{"size": "1"}]}}}, "dtype": {"type": "DT_INT32"}}}, {"name": "StatefulPartitionedCall/Yolo_v4/upsamp_128/strided_slice/stack_1", "op": "Const", "attr": {"value": {"tensor": {"dtype": "DT_INT32", "tensorShape": {"dim": [{"size": "1"}]}}}, "dtype": {"type": "DT_INT32"}}}, {"name": "StatefulPartitionedCall/Yolo_v4/upsamp_128/strided_slice/stack_2", "op": "Const", "attr": {"dtype": {"type": "DT_INT32"}, "value": {"tensor": {"dtype": "DT_INT32", "tensorShape": {"dim": [{"size": "1"}]}}}}}, {"name": "StatefulPartitionedCall/Yolo_v4/upsamp_128/Const", "op": "Const", "attr": {"value": {"tensor": {"dtype": "DT_INT32", "tensorShape": {"dim": [{"size": "2"}]}}}, "dtype": {"type": "DT_INT32"}}}, {"name": "StatefulPartitionedCall/Yolo_v4/concat_131/concat/axis", "op": "Const", "attr": {"value": {"tensor": {"dtype": "DT_INT32", "tensorShape": {}}}, "dtype": {"type": "DT_INT32"}}}, {"name": "unknown_173", "op": "Const", "attr": {"dtype": {"type": "DT_FLOAT"}, "value": {"tensor": {"dtype": "DT_FLOAT", "tensorShape": {"dim": [{"size": "1"}, {"size": "1"}, {"size": "256"}, {"size": "128"}]}}}}}, {"name": "unknown_174", "op": "Const", "attr": {"value": {"tensor": {"dtype": "DT_FLOAT", "tensorShape": {"dim": [{"size": "128"}]}}}, "dtype": {"type": "DT_FLOAT"}}}, {"name": "unknown_175", "op": "Const", "attr": {"dtype": {"type": "DT_FLOAT"}, "value": {"tensor": {"dtype": "DT_FLOAT", "tensorShape": {"dim": [{"size": "3"}, {"size": "3"}, {"size": "128"}, {"size": "256"}]}}}}}, {"name": "unknown_176", "op": "Const", "attr": {"dtype": {"type": "DT_FLOAT"}, "value": {"tensor": {"dtype": "DT_FLOAT", "tensorShape": {"dim": [{"size": "256"}]}}}}}, {"name": "unknown_177", "op": "Const", "attr": {"dtype": {"type": "DT_FLOAT"}, "value": {"tensor": {"dtype": "DT_FLOAT", "tensorShape": {"dim": [{"size": "1"}, {"size": "1"}, {"size": "256"}, {"size": "128"}]}}}}}, {"name": "unknown_178", "op": "Const", "attr": {"value": {"tensor": {"dtype": "DT_FLOAT", "tensorShape": {"dim": [{"size": "128"}]}}}, "dtype": {"type": "DT_FLOAT"}}}, {"name": "unknown_179", "op": "Const", "attr": {"dtype": {"type": "DT_FLOAT"}, "value": {"tensor": {"dtype": "DT_FLOAT", "tensorShape": {"dim": [{"size": "3"}, {"size": "3"}, {"size": "128"}, {"size": "256"}]}}}}}, {"name": "unknown_180", "op": "Const", "attr": {"dtype": {"type": "DT_FLOAT"}, "value": {"tensor": {"dtype": "DT_FLOAT", "tensorShape": {"dim": [{"size": "256"}]}}}}}, {"name": "unknown_181", "op": "Const", "attr": {"dtype": {"type": "DT_FLOAT"}, "value": {"tensor": {"dtype": "DT_FLOAT", "tensorShape": {"dim": [{"size": "1"}, {"size": "1"}, {"size": "256"}, {"size": "128"}]}}}}}, {"name": "unknown_182", "op": "Const", "attr": {"dtype": {"type": "DT_FLOAT"}, "value": {"tensor": {"dtype": "DT_FLOAT", "tensorShape": {"dim": [{"size": "128"}]}}}}}, {"name": "StatefulPartitionedCall/Yolo_v4/zerop_141/Pad/paddings", "op": "Const", "attr": {"dtype": {"type": "DT_INT32"}, "value": {"tensor": {"dtype": "DT_INT32", "tensorShape": {"dim": [{"size": "4"}, {"size": "2"}]}}}}}, {"name": "unknown_183", "op": "Const", "attr": {"value": {"tensor": {"dtype": "DT_FLOAT", "tensorShape": {"dim": [{"size": "3"}, {"size": "3"}, {"size": "128"}, {"size": "256"}]}}}, "dtype": {"type": "DT_FLOAT"}}}, {"name": "unknown_184", "op": "Const", "attr": {"dtype": {"type": "DT_FLOAT"}, "value": {"tensor": {"dtype": "DT_FLOAT", "tensorShape": {"dim": [{"size": "256"}]}}}}}, {"name": "unknown_157", "op": "Const", "attr": {"dtype": {"type": "DT_FLOAT"}, "value": {"tensor": {"dtype": "DT_FLOAT", "tensorShape": {"dim": [{"size": "1"}, {"size": "1"}, {"size": "512"}, {"size": "256"}]}}}}}, {"name": "unknown_158", "op": "Const", "attr": {"dtype": {"type": "DT_FLOAT"}, "value": {"tensor": {"dtype": "DT_FLOAT", "tensorShape": {"dim": [{"size": "256"}]}}}}}, {"name": "unknown_155", "op": "Const", "attr": {"value": {"tensor": {"dtype": "DT_FLOAT", "tensorShape": {"dim": [{"size": "1"}, {"size": "1"}, {"size": "512"}, {"size": "256"}]}}}, "dtype": {"type": "DT_FLOAT"}}}, {"name": "unknown_156", "op": "Const", "attr": {"dtype": {"type": "DT_FLOAT"}, "value": {"tensor": {"dtype": "DT_FLOAT", "tensorShape": {"dim": [{"size": "256"}]}}}}}, {"name": "StatefulPartitionedCall/Yolo_v4/upsamp_118/strided_slice/stack", "op": "Const", "attr": {"value": {"tensor": {"dtype": "DT_INT32", "tensorShape": {"dim": [{"size": "1"}]}}}, "dtype": {"type": "DT_INT32"}}}, {"name": "StatefulPartitionedCall/Yolo_v4/upsamp_118/strided_slice/stack_1", "op": "Const", "attr": {"value": {"tensor": {"dtype": "DT_INT32", "tensorShape": {"dim": [{"size": "1"}]}}}, "dtype": {"type": "DT_INT32"}}}, {"name": "StatefulPartitionedCall/Yolo_v4/upsamp_118/strided_slice/stack_2", "op": "Const", "attr": {"dtype": {"type": "DT_INT32"}, "value": {"tensor": {"dtype": "DT_INT32", "tensorShape": {"dim": [{"size": "1"}]}}}}}, {"name": "StatefulPartitionedCall/Yolo_v4/upsamp_118/Const", "op": "Const", "attr": {"dtype": {"type": "DT_INT32"}, "value": {"tensor": {"dtype": "DT_INT32", "tensorShape": {"dim": [{"size": "2"}]}}}}}, {"name": "StatefulPartitionedCall/Yolo_v4/concat_121/concat/axis", "op": "Const", "attr": {"dtype": {"type": "DT_INT32"}, "value": {"tensor": {"dtype": "DT_INT32", "tensorShape": {}}}}}, {"name": "unknown_159", "op": "Const", "attr": {"value": {"tensor": {"dtype": "DT_FLOAT", "tensorShape": {"dim": [{"size": "1"}, {"size": "1"}, {"size": "512"}, {"size": "256"}]}}}, "dtype": {"type": "DT_FLOAT"}}}, {"name": "unknown_160", "op": "Const", "attr": {"value": {"tensor": {"dtype": "DT_FLOAT", "tensorShape": {"dim": [{"size": "256"}]}}}, "dtype": {"type": "DT_FLOAT"}}}, {"name": "unknown_161", "op": "Const", "attr": {"dtype": {"type": "DT_FLOAT"}, "value": {"tensor": {"dtype": "DT_FLOAT", "tensorShape": {"dim": [{"size": "3"}, {"size": "3"}, {"size": "256"}, {"size": "512"}]}}}}}, {"name": "unknown_162", "op": "Const", "attr": {"dtype": {"type": "DT_FLOAT"}, "value": {"tensor": {"dtype": "DT_FLOAT", "tensorShape": {"dim": [{"size": "512"}]}}}}}, {"name": "unknown_163", "op": "Const", "attr": {"value": {"tensor": {"dtype": "DT_FLOAT", "tensorShape": {"dim": [{"size": "1"}, {"size": "1"}, {"size": "512"}, {"size": "256"}]}}}, "dtype": {"type": "DT_FLOAT"}}}, {"name": "unknown_164", "op": "Const", "attr": {"value": {"tensor": {"dtype": "DT_FLOAT", "tensorShape": {"dim": [{"size": "256"}]}}}, "dtype": {"type": "DT_FLOAT"}}}, {"name": "unknown_165", "op": "Const", "attr": {"dtype": {"type": "DT_FLOAT"}, "value": {"tensor": {"dtype": "DT_FLOAT", "tensorShape": {"dim": [{"size": "3"}, {"size": "3"}, {"size": "256"}, {"size": "512"}]}}}}}, {"name": "unknown_166", "op": "Const", "attr": {"value": {"tensor": {"dtype": "DT_FLOAT", "tensorShape": {"dim": [{"size": "512"}]}}}, "dtype": {"type": "DT_FLOAT"}}}, {"name": "unknown_167", "op": "Const", "attr": {"value": {"tensor": {"dtype": "DT_FLOAT", "tensorShape": {"dim": [{"size": "1"}, {"size": "1"}, {"size": "512"}, {"size": "256"}]}}}, "dtype": {"type": "DT_FLOAT"}}}, {"name": "unknown_168", "op": "Const", "attr": {"value": {"tensor": {"dtype": "DT_FLOAT", "tensorShape": {"dim": [{"size": "256"}]}}}, "dtype": {"type": "DT_FLOAT"}}}, {"name": "StatefulPartitionedCall/Yolo_v4/concat_142/concat/axis", "op": "Const", "attr": {"value": {"tensor": {"dtype": "DT_INT32", "tensorShape": {}}}, "dtype": {"type": "DT_INT32"}}}, {"name": "unknown_185", "op": "Const", "attr": {"value": {"tensor": {"dtype": "DT_FLOAT", "tensorShape": {"dim": [{"size": "1"}, {"size": "1"}, {"size": "512"}, {"size": "256"}]}}}, "dtype": {"type": "DT_FLOAT"}}}, {"name": "unknown_186", "op": "Const", "attr": {"value": {"tensor": {"dtype": "DT_FLOAT", "tensorShape": {"dim": [{"size": "256"}]}}}, "dtype": {"type": "DT_FLOAT"}}}, {"name": "unknown_187", "op": "Const", "attr": {"value": {"tensor": {"dtype": "DT_FLOAT", "tensorShape": {"dim": [{"size": "3"}, {"size": "3"}, {"size": "256"}, {"size": "512"}]}}}, "dtype": {"type": "DT_FLOAT"}}}, {"name": "unknown_188", "op": "Const", "attr": {"value": {"tensor": {"dtype": "DT_FLOAT", "tensorShape": {"dim": [{"size": "512"}]}}}, "dtype": {"type": "DT_FLOAT"}}}, {"name": "unknown_189", "op": "Const", "attr": {"dtype": {"type": "DT_FLOAT"}, "value": {"tensor": {"dtype": "DT_FLOAT", "tensorShape": {"dim": [{"size": "1"}, {"size": "1"}, {"size": "512"}, {"size": "256"}]}}}}}, {"name": "unknown_190", "op": "Const", "attr": {"value": {"tensor": {"dtype": "DT_FLOAT", "tensorShape": {"dim": [{"size": "256"}]}}}, "dtype": {"type": "DT_FLOAT"}}}, {"name": "unknown_191", "op": "Const", "attr": {"value": {"tensor": {"dtype": "DT_FLOAT", "tensorShape": {"dim": [{"size": "3"}, {"size": "3"}, {"size": "256"}, {"size": "512"}]}}}, "dtype": {"type": "DT_FLOAT"}}}, {"name": "unknown_192", "op": "Const", "attr": {"dtype": {"type": "DT_FLOAT"}, "value": {"tensor": {"dtype": "DT_FLOAT", "tensorShape": {"dim": [{"size": "512"}]}}}}}, {"name": "unknown_193", "op": "Const", "attr": {"value": {"tensor": {"dtype": "DT_FLOAT", "tensorShape": {"dim": [{"size": "1"}, {"size": "1"}, {"size": "512"}, {"size": "256"}]}}}, "dtype": {"type": "DT_FLOAT"}}}, {"name": "unknown_194", "op": "Const", "attr": {"dtype": {"type": "DT_FLOAT"}, "value": {"tensor": {"dtype": "DT_FLOAT", "tensorShape": {"dim": [{"size": "256"}]}}}}}, {"name": "StatefulPartitionedCall/Yolo_v4/zerop_152/Pad/paddings", "op": "Const", "attr": {"dtype": {"type": "DT_INT32"}, "value": {"tensor": {"dtype": "DT_INT32", "tensorShape": {"dim": [{"size": "4"}, {"size": "2"}]}}}}}, {"name": "unknown_195", "op": "Const", "attr": {"value": {"tensor": {"dtype": "DT_FLOAT", "tensorShape": {"dim": [{"size": "3"}, {"size": "3"}, {"size": "256"}, {"size": "512"}]}}}, "dtype": {"type": "DT_FLOAT"}}}, {"name": "unknown_196", "op": "Const", "attr": {"dtype": {"type": "DT_FLOAT"}, "value": {"tensor": {"dtype": "DT_FLOAT", "tensorShape": {"dim": [{"size": "512"}]}}}}}, {"name": "unknown_119", "op": "Const", "attr": {"value": {"tensor": {"dtype": "DT_FLOAT", "tensorShape": {"dim": [{"size": "1"}, {"size": "1"}, {"size": "1024"}, {"size": "512"}]}}}, "dtype": {"type": "DT_FLOAT"}}}, {"name": "unknown_120", "op": "Const", "attr": {"dtype": {"type": "DT_FLOAT"}, "value": {"tensor": {"dtype": "DT_FLOAT", "tensorShape": {"dim": [{"size": "512"}]}}}}}, {"name": "unknown_121", "op": "Const", "attr": {"value": {"tensor": {"dtype": "DT_FLOAT", "tensorShape": {"dim": [{"size": "1"}, {"size": "1"}, {"size": "512"}, {"size": "512"}]}}}, "dtype": {"type": "DT_FLOAT"}}}, {"name": "unknown_122", "op": "Const", "attr": {"dtype": {"type": "DT_FLOAT"}, "value": {"tensor": {"dtype": "DT_FLOAT", "tensorShape": {"dim": [{"size": "512"}]}}}}}, {"name": "unknown_123", "op": "Const", "attr": {"value": {"tensor": {"dtype": "DT_FLOAT", "tensorShape": {"dim": [{"size": "3"}, {"size": "3"}, {"size": "512"}, {"size": "512"}]}}}, "dtype": {"type": "DT_FLOAT"}}}, {"name": "unknown_124", "op": "Const", "attr": {"dtype": {"type": "DT_FLOAT"}, "value": {"tensor": {"dtype": "DT_FLOAT", "tensorShape": {"dim": [{"size": "512"}]}}}}}, {"name": "unknown_125", "op": "Const", "attr": {"value": {"tensor": {"dtype": "DT_FLOAT", "tensorShape": {"dim": [{"size": "1"}, {"size": "1"}, {"size": "512"}, {"size": "512"}]}}}, "dtype": {"type": "DT_FLOAT"}}}, {"name": "unknown_126", "op": "Const", "attr": {"dtype": {"type": "DT_FLOAT"}, "value": {"tensor": {"dtype": "DT_FLOAT", "tensorShape": {"dim": [{"size": "512"}]}}}}}, {"name": "unknown_127", "op": "Const", "attr": {"dtype": {"type": "DT_FLOAT"}, "value": {"tensor": {"dtype": "DT_FLOAT", "tensorShape": {"dim": [{"size": "3"}, {"size": "3"}, {"size": "512"}, {"size": "512"}]}}}}}, {"name": "unknown_128", "op": "Const", "attr": {"dtype": {"type": "DT_FLOAT"}, "value": {"tensor": {"dtype": "DT_FLOAT", "tensorShape": {"dim": [{"size": "512"}]}}}}}, {"name": "unknown_129", "op": "Const", "attr": {"dtype": {"type": "DT_FLOAT"}, "value": {"tensor": {"dtype": "DT_FLOAT", "tensorShape": {"dim": [{"size": "1"}, {"size": "1"}, {"size": "512"}, {"size": "512"}]}}}}}, {"name": "unknown_130", "op": "Const", "attr": {"value": {"tensor": {"dtype": "DT_FLOAT", "tensorShape": {"dim": [{"size": "512"}]}}}, "dtype": {"type": "DT_FLOAT"}}}, {"name": "unknown_131", "op": "Const", "attr": {"value": {"tensor": {"dtype": "DT_FLOAT", "tensorShape": {"dim": [{"size": "3"}, {"size": "3"}, {"size": "512"}, {"size": "512"}]}}}, "dtype": {"type": "DT_FLOAT"}}}, {"name": "unknown_132", "op": "Const", "attr": {"dtype": {"type": "DT_FLOAT"}, "value": {"tensor": {"dtype": "DT_FLOAT", "tensorShape": {"dim": [{"size": "512"}]}}}}}, {"name": "unknown_133", "op": "Const", "attr": {"value": {"tensor": {"dtype": "DT_FLOAT", "tensorShape": {"dim": [{"size": "1"}, {"size": "1"}, {"size": "512"}, {"size": "512"}]}}}, "dtype": {"type": "DT_FLOAT"}}}, {"name": "unknown_134", "op": "Const", "attr": {"value": {"tensor": {"dtype": "DT_FLOAT", "tensorShape": {"dim": [{"size": "512"}]}}}, "dtype": {"type": "DT_FLOAT"}}}, {"name": "unknown_135", "op": "Const", "attr": {"value": {"tensor": {"dtype": "DT_FLOAT", "tensorShape": {"dim": [{"size": "3"}, {"size": "3"}, {"size": "512"}, {"size": "512"}]}}}, "dtype": {"type": "DT_FLOAT"}}}, {"name": "unknown_136", "op": "Const", "attr": {"dtype": {"type": "DT_FLOAT"}, "value": {"tensor": {"dtype": "DT_FLOAT", "tensorShape": {"dim": [{"size": "512"}]}}}}}, {"name": "unknown_137", "op": "Const", "attr": {"dtype": {"type": "DT_FLOAT"}, "value": {"tensor": {"dtype": "DT_FLOAT", "tensorShape": {"dim": [{"size": "1"}, {"size": "1"}, {"size": "512"}, {"size": "512"}]}}}}}, {"name": "unknown_138", "op": "Const", "attr": {"dtype": {"type": "DT_FLOAT"}, "value": {"tensor": {"dtype": "DT_FLOAT", "tensorShape": {"dim": [{"size": "512"}]}}}}}, {"name": "unknown_77", "op": "Const", "attr": {"value": {"tensor": {"dtype": "DT_FLOAT", "tensorShape": {"dim": [{"size": "1"}, {"size": "1"}, {"size": "512"}, {"size": "256"}]}}}, "dtype": {"type": "DT_FLOAT"}}}, {"name": "unknown_78", "op": "Const", "attr": {"value": {"tensor": {"dtype": "DT_FLOAT", "tensorShape": {"dim": [{"size": "256"}]}}}, "dtype": {"type": "DT_FLOAT"}}}, {"name": "unknown_79", "op": "Const", "attr": {"value": {"tensor": {"dtype": "DT_FLOAT", "tensorShape": {"dim": [{"size": "1"}, {"size": "1"}, {"size": "256"}, {"size": "256"}]}}}, "dtype": {"type": "DT_FLOAT"}}}, {"name": "unknown_80", "op": "Const", "attr": {"value": {"tensor": {"dtype": "DT_FLOAT", "tensorShape": {"dim": [{"size": "256"}]}}}, "dtype": {"type": "DT_FLOAT"}}}, {"name": "unknown_81", "op": "Const", "attr": {"value": {"tensor": {"dtype": "DT_FLOAT", "tensorShape": {"dim": [{"size": "3"}, {"size": "3"}, {"size": "256"}, {"size": "256"}]}}}, "dtype": {"type": "DT_FLOAT"}}}, {"name": "unknown_82", "op": "Const", "attr": {"value": {"tensor": {"dtype": "DT_FLOAT", "tensorShape": {"dim": [{"size": "256"}]}}}, "dtype": {"type": "DT_FLOAT"}}}, {"name": "unknown_83", "op": "Const", "attr": {"value": {"tensor": {"dtype": "DT_FLOAT", "tensorShape": {"dim": [{"size": "1"}, {"size": "1"}, {"size": "256"}, {"size": "256"}]}}}, "dtype": {"type": "DT_FLOAT"}}}, {"name": "unknown_84", "op": "Const", "attr": {"dtype": {"type": "DT_FLOAT"}, "value": {"tensor": {"dtype": "DT_FLOAT", "tensorShape": {"dim": [{"size": "256"}]}}}}}, {"name": "unknown_85", "op": "Const", "attr": {"dtype": {"type": "DT_FLOAT"}, "value": {"tensor": {"dtype": "DT_FLOAT", "tensorShape": {"dim": [{"size": "3"}, {"size": "3"}, {"size": "256"}, {"size": "256"}]}}}}}, {"name": "unknown_86", "op": "Const", "attr": {"dtype": {"type": "DT_FLOAT"}, "value": {"tensor": {"dtype": "DT_FLOAT", "tensorShape": {"dim": [{"size": "256"}]}}}}}, {"name": "unknown_87", "op": "Const", "attr": {"value": {"tensor": {"dtype": "DT_FLOAT", "tensorShape": {"dim": [{"size": "1"}, {"size": "1"}, {"size": "256"}, {"size": "256"}]}}}, "dtype": {"type": "DT_FLOAT"}}}, {"name": "unknown_88", "op": "Const", "attr": {"dtype": {"type": "DT_FLOAT"}, "value": {"tensor": {"dtype": "DT_FLOAT", "tensorShape": {"dim": [{"size": "256"}]}}}}}, {"name": "unknown_89", "op": "Const", "attr": {"value": {"tensor": {"dtype": "DT_FLOAT", "tensorShape": {"dim": [{"size": "3"}, {"size": "3"}, {"size": "256"}, {"size": "256"}]}}}, "dtype": {"type": "DT_FLOAT"}}}, {"name": "unknown_90", "op": "Const", "attr": {"value": {"tensor": {"dtype": "DT_FLOAT", "tensorShape": {"dim": [{"size": "256"}]}}}, "dtype": {"type": "DT_FLOAT"}}}, {"name": "unknown_91", "op": "Const", "attr": {"value": {"tensor": {"dtype": "DT_FLOAT", "tensorShape": {"dim": [{"size": "1"}, {"size": "1"}, {"size": "256"}, {"size": "256"}]}}}, "dtype": {"type": "DT_FLOAT"}}}, {"name": "unknown_92", "op": "Const", "attr": {"dtype": {"type": "DT_FLOAT"}, "value": {"tensor": {"dtype": "DT_FLOAT", "tensorShape": {"dim": [{"size": "256"}]}}}}}, {"name": "unknown_93", "op": "Const", "attr": {"value": {"tensor": {"dtype": "DT_FLOAT", "tensorShape": {"dim": [{"size": "3"}, {"size": "3"}, {"size": "256"}, {"size": "256"}]}}}, "dtype": {"type": "DT_FLOAT"}}}, {"name": "unknown_94", "op": "Const", "attr": {"dtype": {"type": "DT_FLOAT"}, "value": {"tensor": {"dtype": "DT_FLOAT", "tensorShape": {"dim": [{"size": "256"}]}}}}}, {"name": "unknown_95", "op": "Const", "attr": {"dtype": {"type": "DT_FLOAT"}, "value": {"tensor": {"dtype": "DT_FLOAT", "tensorShape": {"dim": [{"size": "1"}, {"size": "1"}, {"size": "256"}, {"size": "256"}]}}}}}, {"name": "unknown_96", "op": "Const", "attr": {"dtype": {"type": "DT_FLOAT"}, "value": {"tensor": {"dtype": "DT_FLOAT", "tensorShape": {"dim": [{"size": "256"}]}}}}}, {"name": "unknown_97", "op": "Const", "attr": {"value": {"tensor": {"dtype": "DT_FLOAT", "tensorShape": {"dim": [{"size": "3"}, {"size": "3"}, {"size": "256"}, {"size": "256"}]}}}, "dtype": {"type": "DT_FLOAT"}}}, {"name": "unknown_98", "op": "Const", "attr": {"dtype": {"type": "DT_FLOAT"}, "value": {"tensor": {"dtype": "DT_FLOAT", "tensorShape": {"dim": [{"size": "256"}]}}}}}, {"name": "unknown_99", "op": "Const", "attr": {"dtype": {"type": "DT_FLOAT"}, "value": {"tensor": {"dtype": "DT_FLOAT", "tensorShape": {"dim": [{"size": "1"}, {"size": "1"}, {"size": "256"}, {"size": "256"}]}}}}}, {"name": "unknown_100", "op": "Const", "attr": {"dtype": {"type": "DT_FLOAT"}, "value": {"tensor": {"dtype": "DT_FLOAT", "tensorShape": {"dim": [{"size": "256"}]}}}}}, {"name": "unknown_101", "op": "Const", "attr": {"dtype": {"type": "DT_FLOAT"}, "value": {"tensor": {"dtype": "DT_FLOAT", "tensorShape": {"dim": [{"size": "3"}, {"size": "3"}, {"size": "256"}, {"size": "256"}]}}}}}, {"name": "unknown_102", "op": "Const", "attr": {"dtype": {"type": "DT_FLOAT"}, "value": {"tensor": {"dtype": "DT_FLOAT", "tensorShape": {"dim": [{"size": "256"}]}}}}}, {"name": "unknown_103", "op": "Const", "attr": {"value": {"tensor": {"dtype": "DT_FLOAT", "tensorShape": {"dim": [{"size": "1"}, {"size": "1"}, {"size": "256"}, {"size": "256"}]}}}, "dtype": {"type": "DT_FLOAT"}}}, {"name": "unknown_104", "op": "Const", "attr": {"dtype": {"type": "DT_FLOAT"}, "value": {"tensor": {"dtype": "DT_FLOAT", "tensorShape": {"dim": [{"size": "256"}]}}}}}, {"name": "unknown_105", "op": "Const", "attr": {"dtype": {"type": "DT_FLOAT"}, "value": {"tensor": {"dtype": "DT_FLOAT", "tensorShape": {"dim": [{"size": "3"}, {"size": "3"}, {"size": "256"}, {"size": "256"}]}}}}}, {"name": "unknown_106", "op": "Const", "attr": {"dtype": {"type": "DT_FLOAT"}, "value": {"tensor": {"dtype": "DT_FLOAT", "tensorShape": {"dim": [{"size": "256"}]}}}}}, {"name": "unknown_107", "op": "Const", "attr": {"dtype": {"type": "DT_FLOAT"}, "value": {"tensor": {"dtype": "DT_FLOAT", "tensorShape": {"dim": [{"size": "1"}, {"size": "1"}, {"size": "256"}, {"size": "256"}]}}}}}, {"name": "unknown_108", "op": "Const", "attr": {"value": {"tensor": {"dtype": "DT_FLOAT", "tensorShape": {"dim": [{"size": "256"}]}}}, "dtype": {"type": "DT_FLOAT"}}}, {"name": "unknown_109", "op": "Const", "attr": {"dtype": {"type": "DT_FLOAT"}, "value": {"tensor": {"dtype": "DT_FLOAT", "tensorShape": {"dim": [{"size": "3"}, {"size": "3"}, {"size": "256"}, {"size": "256"}]}}}}}, {"name": "unknown_110", "op": "Const", "attr": {"dtype": {"type": "DT_FLOAT"}, "value": {"tensor": {"dtype": "DT_FLOAT", "tensorShape": {"dim": [{"size": "256"}]}}}}}, {"name": "unknown_111", "op": "Const", "attr": {"dtype": {"type": "DT_FLOAT"}, "value": {"tensor": {"dtype": "DT_FLOAT", "tensorShape": {"dim": [{"size": "1"}, {"size": "1"}, {"size": "256"}, {"size": "256"}]}}}}}, {"name": "unknown_112", "op": "Const", "attr": {"value": {"tensor": {"dtype": "DT_FLOAT", "tensorShape": {"dim": [{"size": "256"}]}}}, "dtype": {"type": "DT_FLOAT"}}}, {"name": "unknown_35", "op": "Const", "attr": {"dtype": {"type": "DT_FLOAT"}, "value": {"tensor": {"dtype": "DT_FLOAT", "tensorShape": {"dim": [{"size": "1"}, {"size": "1"}, {"size": "256"}, {"size": "128"}]}}}}}, {"name": "unknown_36", "op": "Const", "attr": {"dtype": {"type": "DT_FLOAT"}, "value": {"tensor": {"dtype": "DT_FLOAT", "tensorShape": {"dim": [{"size": "128"}]}}}}}, {"name": "unknown_37", "op": "Const", "attr": {"dtype": {"type": "DT_FLOAT"}, "value": {"tensor": {"dtype": "DT_FLOAT", "tensorShape": {"dim": [{"size": "1"}, {"size": "1"}, {"size": "128"}, {"size": "128"}]}}}}}, {"name": "unknown_38", "op": "Const", "attr": {"dtype": {"type": "DT_FLOAT"}, "value": {"tensor": {"dtype": "DT_FLOAT", "tensorShape": {"dim": [{"size": "128"}]}}}}}, {"name": "unknown_39", "op": "Const", "attr": {"dtype": {"type": "DT_FLOAT"}, "value": {"tensor": {"dtype": "DT_FLOAT", "tensorShape": {"dim": [{"size": "3"}, {"size": "3"}, {"size": "128"}, {"size": "128"}]}}}}}, {"name": "unknown_40", "op": "Const", "attr": {"value": {"tensor": {"dtype": "DT_FLOAT", "tensorShape": {"dim": [{"size": "128"}]}}}, "dtype": {"type": "DT_FLOAT"}}}, {"name": "unknown_41", "op": "Const", "attr": {"dtype": {"type": "DT_FLOAT"}, "value": {"tensor": {"dtype": "DT_FLOAT", "tensorShape": {"dim": [{"size": "1"}, {"size": "1"}, {"size": "128"}, {"size": "128"}]}}}}}, {"name": "unknown_42", "op": "Const", "attr": {"dtype": {"type": "DT_FLOAT"}, "value": {"tensor": {"dtype": "DT_FLOAT", "tensorShape": {"dim": [{"size": "128"}]}}}}}, {"name": "unknown_43", "op": "Const", "attr": {"dtype": {"type": "DT_FLOAT"}, "value": {"tensor": {"dtype": "DT_FLOAT", "tensorShape": {"dim": [{"size": "3"}, {"size": "3"}, {"size": "128"}, {"size": "128"}]}}}}}, {"name": "unknown_44", "op": "Const", "attr": {"value": {"tensor": {"dtype": "DT_FLOAT", "tensorShape": {"dim": [{"size": "128"}]}}}, "dtype": {"type": "DT_FLOAT"}}}, {"name": "unknown_45", "op": "Const", "attr": {"value": {"tensor": {"dtype": "DT_FLOAT", "tensorShape": {"dim": [{"size": "1"}, {"size": "1"}, {"size": "128"}, {"size": "128"}]}}}, "dtype": {"type": "DT_FLOAT"}}}, {"name": "unknown_46", "op": "Const", "attr": {"dtype": {"type": "DT_FLOAT"}, "value": {"tensor": {"dtype": "DT_FLOAT", "tensorShape": {"dim": [{"size": "128"}]}}}}}, {"name": "unknown_47", "op": "Const", "attr": {"value": {"tensor": {"dtype": "DT_FLOAT", "tensorShape": {"dim": [{"size": "3"}, {"size": "3"}, {"size": "128"}, {"size": "128"}]}}}, "dtype": {"type": "DT_FLOAT"}}}, {"name": "unknown_48", "op": "Const", "attr": {"dtype": {"type": "DT_FLOAT"}, "value": {"tensor": {"dtype": "DT_FLOAT", "tensorShape": {"dim": [{"size": "128"}]}}}}}, {"name": "unknown_49", "op": "Const", "attr": {"dtype": {"type": "DT_FLOAT"}, "value": {"tensor": {"dtype": "DT_FLOAT", "tensorShape": {"dim": [{"size": "1"}, {"size": "1"}, {"size": "128"}, {"size": "128"}]}}}}}, {"name": "unknown_50", "op": "Const", "attr": {"dtype": {"type": "DT_FLOAT"}, "value": {"tensor": {"dtype": "DT_FLOAT", "tensorShape": {"dim": [{"size": "128"}]}}}}}, {"name": "unknown_51", "op": "Const", "attr": {"dtype": {"type": "DT_FLOAT"}, "value": {"tensor": {"dtype": "DT_FLOAT", "tensorShape": {"dim": [{"size": "3"}, {"size": "3"}, {"size": "128"}, {"size": "128"}]}}}}}, {"name": "unknown_52", "op": "Const", "attr": {"dtype": {"type": "DT_FLOAT"}, "value": {"tensor": {"dtype": "DT_FLOAT", "tensorShape": {"dim": [{"size": "128"}]}}}}}, {"name": "unknown_53", "op": "Const", "attr": {"value": {"tensor": {"dtype": "DT_FLOAT", "tensorShape": {"dim": [{"size": "1"}, {"size": "1"}, {"size": "128"}, {"size": "128"}]}}}, "dtype": {"type": "DT_FLOAT"}}}, {"name": "unknown_54", "op": "Const", "attr": {"dtype": {"type": "DT_FLOAT"}, "value": {"tensor": {"dtype": "DT_FLOAT", "tensorShape": {"dim": [{"size": "128"}]}}}}}, {"name": "unknown_55", "op": "Const", "attr": {"dtype": {"type": "DT_FLOAT"}, "value": {"tensor": {"dtype": "DT_FLOAT", "tensorShape": {"dim": [{"size": "3"}, {"size": "3"}, {"size": "128"}, {"size": "128"}]}}}}}, {"name": "unknown_56", "op": "Const", "attr": {"value": {"tensor": {"dtype": "DT_FLOAT", "tensorShape": {"dim": [{"size": "128"}]}}}, "dtype": {"type": "DT_FLOAT"}}}, {"name": "unknown_57", "op": "Const", "attr": {"value": {"tensor": {"dtype": "DT_FLOAT", "tensorShape": {"dim": [{"size": "1"}, {"size": "1"}, {"size": "128"}, {"size": "128"}]}}}, "dtype": {"type": "DT_FLOAT"}}}, {"name": "unknown_58", "op": "Const", "attr": {"value": {"tensor": {"dtype": "DT_FLOAT", "tensorShape": {"dim": [{"size": "128"}]}}}, "dtype": {"type": "DT_FLOAT"}}}, {"name": "unknown_59", "op": "Const", "attr": {"dtype": {"type": "DT_FLOAT"}, "value": {"tensor": {"dtype": "DT_FLOAT", "tensorShape": {"dim": [{"size": "3"}, {"size": "3"}, {"size": "128"}, {"size": "128"}]}}}}}, {"name": "unknown_60", "op": "Const", "attr": {"value": {"tensor": {"dtype": "DT_FLOAT", "tensorShape": {"dim": [{"size": "128"}]}}}, "dtype": {"type": "DT_FLOAT"}}}, {"name": "unknown_61", "op": "Const", "attr": {"dtype": {"type": "DT_FLOAT"}, "value": {"tensor": {"dtype": "DT_FLOAT", "tensorShape": {"dim": [{"size": "1"}, {"size": "1"}, {"size": "128"}, {"size": "128"}]}}}}}, {"name": "unknown_62", "op": "Const", "attr": {"dtype": {"type": "DT_FLOAT"}, "value": {"tensor": {"dtype": "DT_FLOAT", "tensorShape": {"dim": [{"size": "128"}]}}}}}, {"name": "unknown_63", "op": "Const", "attr": {"value": {"tensor": {"dtype": "DT_FLOAT", "tensorShape": {"dim": [{"size": "3"}, {"size": "3"}, {"size": "128"}, {"size": "128"}]}}}, "dtype": {"type": "DT_FLOAT"}}}, {"name": "unknown_64", "op": "Const", "attr": {"value": {"tensor": {"dtype": "DT_FLOAT", "tensorShape": {"dim": [{"size": "128"}]}}}, "dtype": {"type": "DT_FLOAT"}}}, {"name": "unknown_65", "op": "Const", "attr": {"value": {"tensor": {"dtype": "DT_FLOAT", "tensorShape": {"dim": [{"size": "1"}, {"size": "1"}, {"size": "128"}, {"size": "128"}]}}}, "dtype": {"type": "DT_FLOAT"}}}, {"name": "unknown_66", "op": "Const", "attr": {"dtype": {"type": "DT_FLOAT"}, "value": {"tensor": {"dtype": "DT_FLOAT", "tensorShape": {"dim": [{"size": "128"}]}}}}}, {"name": "unknown_67", "op": "Const", "attr": {"dtype": {"type": "DT_FLOAT"}, "value": {"tensor": {"dtype": "DT_FLOAT", "tensorShape": {"dim": [{"size": "3"}, {"size": "3"}, {"size": "128"}, {"size": "128"}]}}}}}, {"name": "unknown_68", "op": "Const", "attr": {"dtype": {"type": "DT_FLOAT"}, "value": {"tensor": {"dtype": "DT_FLOAT", "tensorShape": {"dim": [{"size": "128"}]}}}}}, {"name": "unknown_69", "op": "Const", "attr": {"value": {"tensor": {"dtype": "DT_FLOAT", "tensorShape": {"dim": [{"size": "1"}, {"size": "1"}, {"size": "128"}, {"size": "128"}]}}}, "dtype": {"type": "DT_FLOAT"}}}, {"name": "unknown_70", "op": "Const", "attr": {"value": {"tensor": {"dtype": "DT_FLOAT", "tensorShape": {"dim": [{"size": "128"}]}}}, "dtype": {"type": "DT_FLOAT"}}}, {"name": "unknown_17", "op": "Const", "attr": {"dtype": {"type": "DT_FLOAT"}, "value": {"tensor": {"dtype": "DT_FLOAT", "tensorShape": {"dim": [{"size": "1"}, {"size": "1"}, {"size": "128"}, {"size": "64"}]}}}}}, {"name": "unknown_18", "op": "Const", "attr": {"dtype": {"type": "DT_FLOAT"}, "value": {"tensor": {"dtype": "DT_FLOAT", "tensorShape": {"dim": [{"size": "64"}]}}}}}, {"name": "unknown_19", "op": "Const", "attr": {"dtype": {"type": "DT_FLOAT"}, "value": {"tensor": {"dtype": "DT_FLOAT", "tensorShape": {"dim": [{"size": "1"}, {"size": "1"}, {"size": "64"}, {"size": "64"}]}}}}}, {"name": "unknown_20", "op": "Const", "attr": {"dtype": {"type": "DT_FLOAT"}, "value": {"tensor": {"dtype": "DT_FLOAT", "tensorShape": {"dim": [{"size": "64"}]}}}}}, {"name": "unknown_21", "op": "Const", "attr": {"dtype": {"type": "DT_FLOAT"}, "value": {"tensor": {"dtype": "DT_FLOAT", "tensorShape": {"dim": [{"size": "3"}, {"size": "3"}, {"size": "64"}, {"size": "64"}]}}}}}, {"name": "unknown_22", "op": "Const", "attr": {"dtype": {"type": "DT_FLOAT"}, "value": {"tensor": {"dtype": "DT_FLOAT", "tensorShape": {"dim": [{"size": "64"}]}}}}}, {"name": "unknown_23", "op": "Const", "attr": {"value": {"tensor": {"dtype": "DT_FLOAT", "tensorShape": {"dim": [{"size": "1"}, {"size": "1"}, {"size": "64"}, {"size": "64"}]}}}, "dtype": {"type": "DT_FLOAT"}}}, {"name": "unknown_24", "op": "Const", "attr": {"dtype": {"type": "DT_FLOAT"}, "value": {"tensor": {"dtype": "DT_FLOAT", "tensorShape": {"dim": [{"size": "64"}]}}}}}, {"name": "unknown_25", "op": "Const", "attr": {"dtype": {"type": "DT_FLOAT"}, "value": {"tensor": {"dtype": "DT_FLOAT", "tensorShape": {"dim": [{"size": "3"}, {"size": "3"}, {"size": "64"}, {"size": "64"}]}}}}}, {"name": "unknown_26", "op": "Const", "attr": {"dtype": {"type": "DT_FLOAT"}, "value": {"tensor": {"dtype": "DT_FLOAT", "tensorShape": {"dim": [{"size": "64"}]}}}}}, {"name": "unknown_27", "op": "Const", "attr": {"value": {"tensor": {"dtype": "DT_FLOAT", "tensorShape": {"dim": [{"size": "1"}, {"size": "1"}, {"size": "64"}, {"size": "64"}]}}}, "dtype": {"type": "DT_FLOAT"}}}, {"name": "unknown_28", "op": "Const", "attr": {"dtype": {"type": "DT_FLOAT"}, "value": {"tensor": {"dtype": "DT_FLOAT", "tensorShape": {"dim": [{"size": "64"}]}}}}}, {"name": "unknown_3", "op": "Const", "attr": {"value": {"tensor": {"dtype": "DT_FLOAT", "tensorShape": {"dim": [{"size": "1"}, {"size": "1"}, {"size": "64"}, {"size": "64"}]}}}, "dtype": {"type": "DT_FLOAT"}}}, {"name": "unknown_4", "op": "Const", "attr": {"dtype": {"type": "DT_FLOAT"}, "value": {"tensor": {"dtype": "DT_FLOAT", "tensorShape": {"dim": [{"size": "64"}]}}}}}, {"name": "unknown_5", "op": "Const", "attr": {"value": {"tensor": {"dtype": "DT_FLOAT", "tensorShape": {"dim": [{"size": "1"}, {"size": "1"}, {"size": "64"}, {"size": "32"}]}}}, "dtype": {"type": "DT_FLOAT"}}}, {"name": "unknown_6", "op": "Const", "attr": {"value": {"tensor": {"dtype": "DT_FLOAT", "tensorShape": {"dim": [{"size": "32"}]}}}, "dtype": {"type": "DT_FLOAT"}}}, {"name": "unknown_7", "op": "Const", "attr": {"value": {"tensor": {"dtype": "DT_FLOAT", "tensorShape": {"dim": [{"size": "3"}, {"size": "3"}, {"size": "32"}, {"size": "64"}]}}}, "dtype": {"type": "DT_FLOAT"}}}, {"name": "unknown_8", "op": "Const", "attr": {"value": {"tensor": {"dtype": "DT_FLOAT", "tensorShape": {"dim": [{"size": "64"}]}}}, "dtype": {"type": "DT_FLOAT"}}}, {"name": "unknown_9", "op": "Const", "attr": {"dtype": {"type": "DT_FLOAT"}, "value": {"tensor": {"dtype": "DT_FLOAT", "tensorShape": {"dim": [{"size": "1"}, {"size": "1"}, {"size": "64"}, {"size": "64"}]}}}}}, {"name": "unknown_10", "op": "Const", "attr": {"dtype": {"type": "DT_FLOAT"}, "value": {"tensor": {"dtype": "DT_FLOAT", "tensorShape": {"dim": [{"size": "64"}]}}}}}, {"name": "unknown", "op": "Const", "attr": {"dtype": {"type": "DT_FLOAT"}, "value": {"tensor": {"dtype": "DT_FLOAT", "tensorShape": {"dim": [{"size": "3"}, {"size": "3"}, {"size": "3"}, {"size": "32"}]}}}}}, {"name": "unknown_0", "op": "Const", "attr": {"dtype": {"type": "DT_FLOAT"}, "value": {"tensor": {"dtype": "DT_FLOAT", "tensorShape": {"dim": [{"size": "32"}]}}}}}, {"name": "StatefulPartitionedCall/Yolo_v4/zerop_1/Pad/paddings", "op": "Const", "attr": {"dtype": {"type": "DT_INT32"}, "value": {"tensor": {"dtype": "DT_INT32", "tensorShape": {"dim": [{"size": "4"}, {"size": "2"}]}}}}}, {"name": "unknown_1", "op": "Const", "attr": {"dtype": {"type": "DT_FLOAT"}, "value": {"tensor": {"dtype": "DT_FLOAT", "tensorShape": {"dim": [{"size": "3"}, {"size": "3"}, {"size": "32"}, {"size": "64"}]}}}}}, {"name": "unknown_2", "op": "Const", "attr": {"value": {"tensor": {"dtype": "DT_FLOAT", "tensorShape": {"dim": [{"size": "64"}]}}}, "dtype": {"type": "DT_FLOAT"}}}, {"name": "unknown_11", "op": "Const", "attr": {"dtype": {"type": "DT_FLOAT"}, "value": {"tensor": {"dtype": "DT_FLOAT", "tensorShape": {"dim": [{"size": "1"}, {"size": "1"}, {"size": "64"}, {"size": "64"}]}}}}}, {"name": "unknown_12", "op": "Const", "attr": {"dtype": {"type": "DT_FLOAT"}, "value": {"tensor": {"dtype": "DT_FLOAT", "tensorShape": {"dim": [{"size": "64"}]}}}}}, {"name": "StatefulPartitionedCall/Yolo_v4/concat_9/concat/axis", "op": "Const", "attr": {"value": {"tensor": {"dtype": "DT_INT32", "tensorShape": {}}}, "dtype": {"type": "DT_INT32"}}}, {"name": "unknown_13", "op": "Const", "attr": {"dtype": {"type": "DT_FLOAT"}, "value": {"tensor": {"dtype": "DT_FLOAT", "tensorShape": {"dim": [{"size": "1"}, {"size": "1"}, {"size": "128"}, {"size": "64"}]}}}}}, {"name": "unknown_14", "op": "Const", "attr": {"dtype": {"type": "DT_FLOAT"}, "value": {"tensor": {"dtype": "DT_FLOAT", "tensorShape": {"dim": [{"size": "64"}]}}}}}, {"name": "StatefulPartitionedCall/Yolo_v4/zerop_11/Pad/paddings", "op": "Const", "attr": {"dtype": {"type": "DT_INT32"}, "value": {"tensor": {"dtype": "DT_INT32", "tensorShape": {"dim": [{"size": "4"}, {"size": "2"}]}}}}}, {"name": "unknown_15", "op": "Const", "attr": {"value": {"tensor": {"dtype": "DT_FLOAT", "tensorShape": {"dim": [{"size": "3"}, {"size": "3"}, {"size": "64"}, {"size": "128"}]}}}, "dtype": {"type": "DT_FLOAT"}}}, {"name": "unknown_16", "op": "Const", "attr": {"dtype": {"type": "DT_FLOAT"}, "value": {"tensor": {"dtype": "DT_FLOAT", "tensorShape": {"dim": [{"size": "128"}]}}}}}, {"name": "unknown_29", "op": "Const", "attr": {"dtype": {"type": "DT_FLOAT"}, "value": {"tensor": {"dtype": "DT_FLOAT", "tensorShape": {"dim": [{"size": "1"}, {"size": "1"}, {"size": "128"}, {"size": "64"}]}}}}}, {"name": "unknown_30", "op": "Const", "attr": {"dtype": {"type": "DT_FLOAT"}, "value": {"tensor": {"dtype": "DT_FLOAT", "tensorShape": {"dim": [{"size": "64"}]}}}}}, {"name": "StatefulPartitionedCall/Yolo_v4/concat_22/concat/axis", "op": "Const", "attr": {"value": {"tensor": {"dtype": "DT_INT32", "tensorShape": {}}}, "dtype": {"type": "DT_INT32"}}}, {"name": "unknown_31", "op": "Const", "attr": {"dtype": {"type": "DT_FLOAT"}, "value": {"tensor": {"dtype": "DT_FLOAT", "tensorShape": {"dim": [{"size": "1"}, {"size": "1"}, {"size": "128"}, {"size": "128"}]}}}}}, {"name": "unknown_32", "op": "Const", "attr": {"value": {"tensor": {"dtype": "DT_FLOAT", "tensorShape": {"dim": [{"size": "128"}]}}}, "dtype": {"type": "DT_FLOAT"}}}, {"name": "StatefulPartitionedCall/Yolo_v4/zerop_24/Pad/paddings", "op": "Const", "attr": {"dtype": {"type": "DT_INT32"}, "value": {"tensor": {"dtype": "DT_INT32", "tensorShape": {"dim": [{"size": "4"}, {"size": "2"}]}}}}}, {"name": "unknown_33", "op": "Const", "attr": {"dtype": {"type": "DT_FLOAT"}, "value": {"tensor": {"dtype": "DT_FLOAT", "tensorShape": {"dim": [{"size": "3"}, {"size": "3"}, {"size": "128"}, {"size": "256"}]}}}}}, {"name": "unknown_34", "op": "Const", "attr": {"value": {"tensor": {"dtype": "DT_FLOAT", "tensorShape": {"dim": [{"size": "256"}]}}}, "dtype": {"type": "DT_FLOAT"}}}, {"name": "unknown_71", "op": "Const", "attr": {"value": {"tensor": {"dtype": "DT_FLOAT", "tensorShape": {"dim": [{"size": "1"}, {"size": "1"}, {"size": "256"}, {"size": "128"}]}}}, "dtype": {"type": "DT_FLOAT"}}}, {"name": "unknown_72", "op": "Const", "attr": {"dtype": {"type": "DT_FLOAT"}, "value": {"tensor": {"dtype": "DT_FLOAT", "tensorShape": {"dim": [{"size": "128"}]}}}}}, {"name": "StatefulPartitionedCall/Yolo_v4/concat_53/concat/axis", "op": "Const", "attr": {"dtype": {"type": "DT_INT32"}, "value": {"tensor": {"dtype": "DT_INT32", "tensorShape": {}}}}}, {"name": "unknown_73", "op": "Const", "attr": {"dtype": {"type": "DT_FLOAT"}, "value": {"tensor": {"dtype": "DT_FLOAT", "tensorShape": {"dim": [{"size": "1"}, {"size": "1"}, {"size": "256"}, {"size": "256"}]}}}}}, {"name": "unknown_74", "op": "Const", "attr": {"dtype": {"type": "DT_FLOAT"}, "value": {"tensor": {"dtype": "DT_FLOAT", "tensorShape": {"dim": [{"size": "256"}]}}}}}, {"name": "StatefulPartitionedCall/Yolo_v4/zerop_55/Pad/paddings", "op": "Const", "attr": {"dtype": {"type": "DT_INT32"}, "value": {"tensor": {"dtype": "DT_INT32", "tensorShape": {"dim": [{"size": "4"}, {"size": "2"}]}}}}}, {"name": "unknown_75", "op": "Const", "attr": {"value": {"tensor": {"dtype": "DT_FLOAT", "tensorShape": {"dim": [{"size": "3"}, {"size": "3"}, {"size": "256"}, {"size": "512"}]}}}, "dtype": {"type": "DT_FLOAT"}}}, {"name": "unknown_76", "op": "Const", "attr": {"value": {"tensor": {"dtype": "DT_FLOAT", "tensorShape": {"dim": [{"size": "512"}]}}}, "dtype": {"type": "DT_FLOAT"}}}, {"name": "unknown_113", "op": "Const", "attr": {"value": {"tensor": {"dtype": "DT_FLOAT", "tensorShape": {"dim": [{"size": "1"}, {"size": "1"}, {"size": "512"}, {"size": "256"}]}}}, "dtype": {"type": "DT_FLOAT"}}}, {"name": "unknown_114", "op": "Const", "attr": {"dtype": {"type": "DT_FLOAT"}, "value": {"tensor": {"dtype": "DT_FLOAT", "tensorShape": {"dim": [{"size": "256"}]}}}}}, {"name": "StatefulPartitionedCall/Yolo_v4/concat_84/concat/axis", "op": "Const", "attr": {"value": {"tensor": {"dtype": "DT_INT32", "tensorShape": {}}}, "dtype": {"type": "DT_INT32"}}}, {"name": "unknown_115", "op": "Const", "attr": {"value": {"tensor": {"dtype": "DT_FLOAT", "tensorShape": {"dim": [{"size": "1"}, {"size": "1"}, {"size": "512"}, {"size": "512"}]}}}, "dtype": {"type": "DT_FLOAT"}}}, {"name": "unknown_116", "op": "Const", "attr": {"value": {"tensor": {"dtype": "DT_FLOAT", "tensorShape": {"dim": [{"size": "512"}]}}}, "dtype": {"type": "DT_FLOAT"}}}, {"name": "StatefulPartitionedCall/Yolo_v4/zerop_86/Pad/paddings", "op": "Const", "attr": {"dtype": {"type": "DT_INT32"}, "value": {"tensor": {"dtype": "DT_INT32", "tensorShape": {"dim": [{"size": "4"}, {"size": "2"}]}}}}}, {"name": "unknown_117", "op": "Const", "attr": {"value": {"tensor": {"dtype": "DT_FLOAT", "tensorShape": {"dim": [{"size": "3"}, {"size": "3"}, {"size": "512"}, {"size": "1024"}]}}}, "dtype": {"type": "DT_FLOAT"}}}, {"name": "unknown_118", "op": "Const", "attr": {"dtype": {"type": "DT_FLOAT"}, "value": {"tensor": {"dtype": "DT_FLOAT", "tensorShape": {"dim": [{"size": "1024"}]}}}}}, {"name": "unknown_139", "op": "Const", "attr": {"value": {"tensor": {"dtype": "DT_FLOAT", "tensorShape": {"dim": [{"size": "1"}, {"size": "1"}, {"size": "1024"}, {"size": "512"}]}}}, "dtype": {"type": "DT_FLOAT"}}}, {"name": "unknown_140", "op": "Const", "attr": {"dtype": {"type": "DT_FLOAT"}, "value": {"tensor": {"dtype": "DT_FLOAT", "tensorShape": {"dim": [{"size": "512"}]}}}}}, {"name": "StatefulPartitionedCall/Yolo_v4/concat_103/concat/axis", "op": "Const", "attr": {"value": {"tensor": {"dtype": "DT_INT32", "tensorShape": {}}}, "dtype": {"type": "DT_INT32"}}}, {"name": "unknown_141", "op": "Const", "attr": {"value": {"tensor": {"dtype": "DT_FLOAT", "tensorShape": {"dim": [{"size": "1"}, {"size": "1"}, {"size": "1024"}, {"size": "1024"}]}}}, "dtype": {"type": "DT_FLOAT"}}}, {"name": "unknown_142", "op": "Const", "attr": {"dtype": {"type": "DT_FLOAT"}, "value": {"tensor": {"dtype": "DT_FLOAT", "tensorShape": {"dim": [{"size": "1024"}]}}}}}, {"name": "unknown_143", "op": "Const", "attr": {"dtype": {"type": "DT_FLOAT"}, "value": {"tensor": {"dtype": "DT_FLOAT", "tensorShape": {"dim": [{"size": "1"}, {"size": "1"}, {"size": "1024"}, {"size": "512"}]}}}}}, {"name": "unknown_144", "op": "Const", "attr": {"dtype": {"type": "DT_FLOAT"}, "value": {"tensor": {"dtype": "DT_FLOAT", "tensorShape": {"dim": [{"size": "512"}]}}}}}, {"name": "unknown_145", "op": "Const", "attr": {"dtype": {"type": "DT_FLOAT"}, "value": {"tensor": {"dtype": "DT_FLOAT", "tensorShape": {"dim": [{"size": "3"}, {"size": "3"}, {"size": "512"}, {"size": "1024"}]}}}}}, {"name": "unknown_146", "op": "Const", "attr": {"value": {"tensor": {"dtype": "DT_FLOAT", "tensorShape": {"dim": [{"size": "1024"}]}}}, "dtype": {"type": "DT_FLOAT"}}}, {"name": "unknown_147", "op": "Const", "attr": {"value": {"tensor": {"dtype": "DT_FLOAT", "tensorShape": {"dim": [{"size": "1"}, {"size": "1"}, {"size": "1024"}, {"size": "512"}]}}}, "dtype": {"type": "DT_FLOAT"}}}, {"name": "unknown_148", "op": "Const", "attr": {"dtype": {"type": "DT_FLOAT"}, "value": {"tensor": {"dtype": "DT_FLOAT", "tensorShape": {"dim": [{"size": "512"}]}}}}}, {"name": "StatefulPartitionedCall/Yolo_v4/concat_113/concat/axis", "op": "Const", "attr": {"dtype": {"type": "DT_INT32"}, "value": {"tensor": {"dtype": "DT_INT32", "tensorShape": {}}}}}, {"name": "unknown_149", "op": "Const", "attr": {"value": {"tensor": {"dtype": "DT_FLOAT", "tensorShape": {"dim": [{"size": "1"}, {"size": "1"}, {"size": "2048"}, {"size": "512"}]}}}, "dtype": {"type": "DT_FLOAT"}}}, {"name": "unknown_150", "op": "Const", "attr": {"value": {"tensor": {"dtype": "DT_FLOAT", "tensorShape": {"dim": [{"size": "512"}]}}}, "dtype": {"type": "DT_FLOAT"}}}, {"name": "unknown_151", "op": "Const", "attr": {"value": {"tensor": {"dtype": "DT_FLOAT", "tensorShape": {"dim": [{"size": "3"}, {"size": "3"}, {"size": "512"}, {"size": "1024"}]}}}, "dtype": {"type": "DT_FLOAT"}}}, {"name": "unknown_152", "op": "Const", "attr": {"dtype": {"type": "DT_FLOAT"}, "value": {"tensor": {"dtype": "DT_FLOAT", "tensorShape": {"dim": [{"size": "1024"}]}}}}}, {"name": "unknown_153", "op": "Const", "attr": {"value": {"tensor": {"dtype": "DT_FLOAT", "tensorShape": {"dim": [{"size": "1"}, {"size": "1"}, {"size": "1024"}, {"size": "512"}]}}}, "dtype": {"type": "DT_FLOAT"}}}, {"name": "unknown_154", "op": "Const", "attr": {"value": {"tensor": {"dtype": "DT_FLOAT", "tensorShape": {"dim": [{"size": "512"}]}}}, "dtype": {"type": "DT_FLOAT"}}}, {"name": "StatefulPartitionedCall/Yolo_v4/concat_153/concat/axis", "op": "Const", "attr": {"value": {"tensor": {"dtype": "DT_INT32", "tensorShape": {}}}, "dtype": {"type": "DT_INT32"}}}, {"name": "unknown_197", "op": "Const", "attr": {"value": {"tensor": {"dtype": "DT_FLOAT", "tensorShape": {"dim": [{"size": "1"}, {"size": "1"}, {"size": "1024"}, {"size": "512"}]}}}, "dtype": {"type": "DT_FLOAT"}}}, {"name": "unknown_198", "op": "Const", "attr": {"dtype": {"type": "DT_FLOAT"}, "value": {"tensor": {"dtype": "DT_FLOAT", "tensorShape": {"dim": [{"size": "512"}]}}}}}, {"name": "unknown_199", "op": "Const", "attr": {"value": {"tensor": {"dtype": "DT_FLOAT", "tensorShape": {"dim": [{"size": "3"}, {"size": "3"}, {"size": "512"}, {"size": "1024"}]}}}, "dtype": {"type": "DT_FLOAT"}}}, {"name": "unknown_200", "op": "Const", "attr": {"value": {"tensor": {"dtype": "DT_FLOAT", "tensorShape": {"dim": [{"size": "1024"}]}}}, "dtype": {"type": "DT_FLOAT"}}}, {"name": "unknown_201", "op": "Const", "attr": {"value": {"tensor": {"dtype": "DT_FLOAT", "tensorShape": {"dim": [{"size": "1"}, {"size": "1"}, {"size": "1024"}, {"size": "512"}]}}}, "dtype": {"type": "DT_FLOAT"}}}, {"name": "unknown_202", "op": "Const", "attr": {"value": {"tensor": {"dtype": "DT_FLOAT", "tensorShape": {"dim": [{"size": "512"}]}}}, "dtype": {"type": "DT_FLOAT"}}}, {"name": "unknown_203", "op": "Const", "attr": {"dtype": {"type": "DT_FLOAT"}, "value": {"tensor": {"dtype": "DT_FLOAT", "tensorShape": {"dim": [{"size": "3"}, {"size": "3"}, {"size": "512"}, {"size": "1024"}]}}}}}, {"name": "unknown_204", "op": "Const", "attr": {"value": {"tensor": {"dtype": "DT_FLOAT", "tensorShape": {"dim": [{"size": "1024"}]}}}, "dtype": {"type": "DT_FLOAT"}}}, {"name": "unknown_205", "op": "Const", "attr": {"dtype": {"type": "DT_FLOAT"}, "value": {"tensor": {"dtype": "DT_FLOAT", "tensorShape": {"dim": [{"size": "1"}, {"size": "1"}, {"size": "1024"}, {"size": "512"}]}}}}}, {"name": "unknown_206", "op": "Const", "attr": {"dtype": {"type": "DT_FLOAT"}, "value": {"tensor": {"dtype": "DT_FLOAT", "tensorShape": {"dim": [{"size": "512"}]}}}}}, {"name": "unknown_207", "op": "Const", "attr": {"dtype": {"type": "DT_FLOAT"}, "value": {"tensor": {"dtype": "DT_FLOAT", "tensorShape": {"dim": [{"size": "3"}, {"size": "3"}, {"size": "512"}, {"size": "1024"}]}}}}}, {"name": "unknown_213", "op": "Const", "attr": {"dtype": {"type": "DT_FLOAT"}, "value": {"tensor": {"dtype": "DT_FLOAT", "tensorShape": {"dim": [{"size": "1"}, {"size": "1"}, {"size": "1024"}, {"size": "255"}]}}}}}, {"name": "input_0", "op": "Placeholder", "attr": {"dtype": {"type": "DT_FLOAT"}, "shape": {"shape": {"dim": [{"size": "-1"}, {"size": "608"}, {"size": "608"}, {"size": "3"}]}}}}, {"name": "StatefulPartitionedCall/Yolo_v4/convn_0/BiasAdd", "op": "_FusedConv2D", "input": ["input_0", "unknown", "unknown_0"], "device": "/device:CPU:0", "attr": {"fused_ops": {"list": {"s": ["Qmlhc0FkZA=="]}}, "strides": {"list": {"i": ["1", "1", "1", "1"]}}, "explicit_paddings": {"list": {}}, "T": {"type": "DT_FLOAT"}, "data_format": {"s": "TkhXQw=="}, "padding": {"s": "U0FNRQ=="}, "use_cudnn_on_gpu": {"b": true}, "num_args": {"i": "1"}, "dilations": {"list": {"i": ["1", "1", "1", "1"]}}, "epsilon": {"f": 0.0}}}, {"name": "StatefulPartitionedCall/Yolo_v4/zerop_1/Pad", "op": "Pad", "input": ["StatefulPartitionedCall/Yolo_v4/convn_0/BiasAdd", "StatefulPartitionedCall/Yolo_v4/zerop_1/Pad/paddings"], "attr": {"Tpaddings": {"type": "DT_INT32"}, "T": {"type": "DT_FLOAT"}}}, {"name": "StatefulPartitionedCall/Yolo_v4/convn_1/BiasAdd", "op": "_FusedConv2D", "input": ["StatefulPartitionedCall/Yolo_v4/zerop_1/Pad", "unknown_1", "unknown_2"], "device": "/device:CPU:0", "attr": {"fused_ops": {"list": {"s": ["Qmlhc0FkZA=="]}}, "num_args": {"i": "1"}, "use_cudnn_on_gpu": {"b": true}, "padding": {"s": "VkFMSUQ="}, "T": {"type": "DT_FLOAT"}, "epsilon": {"f": 0.0}, "dilations": {"list": {"i": ["1", "1", "1", "1"]}}, "explicit_paddings": {"list": {}}, "data_format": {"s": "TkhXQw=="}, "strides": {"list": {"i": ["1", "2", "2", "1"]}}}}, {"name": "StatefulPartitionedCall/Yolo_v4/convn_4/BiasAdd", "op": "_FusedConv2D", "input": ["StatefulPartitionedCall/Yolo_v4/convn_1/BiasAdd", "unknown_3", "unknown_4"], "device": "/device:CPU:0", "attr": {"data_format": {"s": "TkhXQw=="}, "strides": {"list": {"i": ["1", "1", "1", "1"]}}, "num_args": {"i": "1"}, "use_cudnn_on_gpu": {"b": true}, "epsilon": {"f": 0.0}, "T": {"type": "DT_FLOAT"}, "dilations": {"list": {"i": ["1", "1", "1", "1"]}}, "explicit_paddings": {"list": {}}, "padding": {"s": "U0FNRQ=="}, "fused_ops": {"list": {"s": ["Qmlhc0FkZA=="]}}}}, {"name": "StatefulPartitionedCall/Yolo_v4/convn_2/BiasAdd", "op": "_FusedConv2D", "input": ["StatefulPartitionedCall/Yolo_v4/convn_1/BiasAdd", "unknown_11", "unknown_12"], "device": "/device:CPU:0", "attr": {"data_format": {"s": "TkhXQw=="}, "fused_ops": {"list": {"s": ["Qmlhc0FkZA=="]}}, "T": {"type": "DT_FLOAT"}, "num_args": {"i": "1"}, "epsilon": {"f": 0.0}, "use_cudnn_on_gpu": {"b": true}, "strides": {"list": {"i": ["1", "1", "1", "1"]}}, "dilations": {"list": {"i": ["1", "1", "1", "1"]}}, "padding": {"s": "U0FNRQ=="}, "explicit_paddings": {"list": {}}}}, {"name": "StatefulPartitionedCall/Yolo_v4/convn_5/BiasAdd", "op": "_FusedConv2D", "input": ["StatefulPartitionedCall/Yolo_v4/convn_4/BiasAdd", "unknown_5", "unknown_6"], "device": "/device:CPU:0", "attr": {"fused_ops": {"list": {"s": ["Qmlhc0FkZA=="]}}, "dilations": {"list": {"i": ["1", "1", "1", "1"]}}, "T": {"type": "DT_FLOAT"}, "strides": {"list": {"i": ["1", "1", "1", "1"]}}, "padding": {"s": "U0FNRQ=="}, "data_format": {"s": "TkhXQw=="}, "epsilon": {"f": 0.0}, "num_args": {"i": "1"}, "use_cudnn_on_gpu": {"b": true}, "explicit_paddings": {"list": {}}}}, {"name": "StatefulPartitionedCall/Yolo_v4/convn_6/BiasAdd", "op": "_FusedConv2D", "input": ["StatefulPartitionedCall/Yolo_v4/convn_5/BiasAdd", "unknown_7", "unknown_8"], "device": "/device:CPU:0", "attr": {"padding": {"s": "U0FNRQ=="}, "data_format": {"s": "TkhXQw=="}, "strides": {"list": {"i": ["1", "1", "1", "1"]}}, "num_args": {"i": "1"}, "use_cudnn_on_gpu": {"b": true}, "T": {"type": "DT_FLOAT"}, "epsilon": {"f": 0.0}, "dilations": {"list": {"i": ["1", "1", "1", "1"]}}, "explicit_paddings": {"list": {}}, "fused_ops": {"list": {"s": ["Qmlhc0FkZA=="]}}}}, {"name": "StatefulPartitionedCall/Yolo_v4/add_7/add", "op": "AddV2", "input": ["StatefulPartitionedCall/Yolo_v4/convn_4/BiasAdd", "StatefulPartitionedCall/Yolo_v4/convn_6/BiasAdd"], "attr": {"T": {"type": "DT_FLOAT"}}}, {"name": "StatefulPartitionedCall/Yolo_v4/convn_8/BiasAdd", "op": "_FusedConv2D", "input": ["StatefulPartitionedCall/Yolo_v4/add_7/add", "unknown_9", "unknown_10"], "device": "/device:CPU:0", "attr": {"fused_ops": {"list": {"s": ["Qmlhc0FkZA=="]}}, "dilations": {"list": {"i": ["1", "1", "1", "1"]}}, "explicit_paddings": {"list": {}}, "T": {"type": "DT_FLOAT"}, "data_format": {"s": "TkhXQw=="}, "padding": {"s": "U0FNRQ=="}, "num_args": {"i": "1"}, "epsilon": {"f": 0.0}, "use_cudnn_on_gpu": {"b": true}, "strides": {"list": {"i": ["1", "1", "1", "1"]}}}}, {"name": "StatefulPartitionedCall/Yolo_v4/concat_9/concat", "op": "ConcatV2", "input": ["StatefulPartitionedCall/Yolo_v4/convn_8/BiasAdd", "StatefulPartitionedCall/Yolo_v4/convn_2/BiasAdd", "StatefulPartitionedCall/Yolo_v4/concat_9/concat/axis"], "attr": {"T": {"type": "DT_FLOAT"}, "N": {"i": "2"}, "Tidx": {"type": "DT_INT32"}}}, {"name": "StatefulPartitionedCall/Yolo_v4/convn_10/BiasAdd", "op": "_FusedConv2D", "input": ["StatefulPartitionedCall/Yolo_v4/concat_9/concat", "unknown_13", "unknown_14"], "device": "/device:CPU:0", "attr": {"data_format": {"s": "TkhXQw=="}, "strides": {"list": {"i": ["1", "1", "1", "1"]}}, "epsilon": {"f": 0.0}, "num_args": {"i": "1"}, "T": {"type": "DT_FLOAT"}, "use_cudnn_on_gpu": {"b": true}, "dilations": {"list": {"i": ["1", "1", "1", "1"]}}, "fused_ops": {"list": {"s": ["Qmlhc0FkZA=="]}}, "explicit_paddings": {"list": {}}, "padding": {"s": "U0FNRQ=="}}}, {"name": "StatefulPartitionedCall/Yolo_v4/zerop_11/Pad", "op": "Pad", "input": ["StatefulPartitionedCall/Yolo_v4/convn_10/BiasAdd", "StatefulPartitionedCall/Yolo_v4/zerop_11/Pad/paddings"], "attr": {"Tpaddings": {"type": "DT_INT32"}, "T": {"type": "DT_FLOAT"}}}, {"name": "StatefulPartitionedCall/Yolo_v4/convn_11/BiasAdd", "op": "_FusedConv2D", "input": ["StatefulPartitionedCall/Yolo_v4/zerop_11/Pad", "unknown_15", "unknown_16"], "device": "/device:CPU:0", "attr": {"epsilon": {"f": 0.0}, "dilations": {"list": {"i": ["1", "1", "1", "1"]}}, "explicit_paddings": {"list": {}}, "data_format": {"s": "TkhXQw=="}, "strides": {"list": {"i": ["1", "2", "2", "1"]}}, "fused_ops": {"list": {"s": ["Qmlhc0FkZA=="]}}, "num_args": {"i": "1"}, "use_cudnn_on_gpu": {"b": true}, "padding": {"s": "VkFMSUQ="}, "T": {"type": "DT_FLOAT"}}}, {"name": "StatefulPartitionedCall/Yolo_v4/convn_14/BiasAdd", "op": "_FusedConv2D", "input": ["StatefulPartitionedCall/Yolo_v4/convn_11/BiasAdd", "unknown_17", "unknown_18"], "device": "/device:CPU:0", "attr": {"explicit_paddings": {"list": {}}, "fused_ops": {"list": {"s": ["Qmlhc0FkZA=="]}}, "T": {"type": "DT_FLOAT"}, "data_format": {"s": "TkhXQw=="}, "padding": {"s": "U0FNRQ=="}, "use_cudnn_on_gpu": {"b": true}, "num_args": {"i": "1"}, "epsilon": {"f": 0.0}, "dilations": {"list": {"i": ["1", "1", "1", "1"]}}, "strides": {"list": {"i": ["1", "1", "1", "1"]}}}}, {"name": "StatefulPartitionedCall/Yolo_v4/convn_12/BiasAdd", "op": "_FusedConv2D", "input": ["StatefulPartitionedCall/Yolo_v4/convn_11/BiasAdd", "unknown_29", "unknown_30"], "device": "/device:CPU:0", "attr": {"use_cudnn_on_gpu": {"b": true}, "dilations": {"list": {"i": ["1", "1", "1", "1"]}}, "explicit_paddings": {"list": {}}, "data_format": {"s": "TkhXQw=="}, "epsilon": {"f": 0.0}, "fused_ops": {"list": {"s": ["Qmlhc0FkZA=="]}}, "strides": {"list": {"i": ["1", "1", "1", "1"]}}, "padding": {"s": "U0FNRQ=="}, "num_args": {"i": "1"}, "T": {"type": "DT_FLOAT"}}}, {"name": "StatefulPartitionedCall/Yolo_v4/convn_15/BiasAdd", "op": "_FusedConv2D", "input": ["StatefulPartitionedCall/Yolo_v4/convn_14/BiasAdd", "unknown_19", "unknown_20"], "device": "/device:CPU:0", "attr": {"num_args": {"i": "1"}, "use_cudnn_on_gpu": {"b": true}, "dilations": {"list": {"i": ["1", "1", "1", "1"]}}, "explicit_paddings": {"list": {}}, "padding": {"s": "U0FNRQ=="}, "fused_ops": {"list": {"s": ["Qmlhc0FkZA=="]}}, "data_format": {"s": "TkhXQw=="}, "epsilon": {"f": 0.0}, "T": {"type": "DT_FLOAT"}, "strides": {"list": {"i": ["1", "1", "1", "1"]}}}}, {"name": "StatefulPartitionedCall/Yolo_v4/convn_16/BiasAdd", "op": "_FusedConv2D", "input": ["StatefulPartitionedCall/Yolo_v4/convn_15/BiasAdd", "unknown_21", "unknown_22"], "device": "/device:CPU:0", "attr": {"num_args": {"i": "1"}, "use_cudnn_on_gpu": {"b": true}, "strides": {"list": {"i": ["1", "1", "1", "1"]}}, "dilations": {"list": {"i": ["1", "1", "1", "1"]}}, "padding": {"s": "U0FNRQ=="}, "explicit_paddings": {"list": {}}, "T": {"type": "DT_FLOAT"}, "data_format": {"s": "TkhXQw=="}, "epsilon": {"f": 0.0}, "fused_ops": {"list": {"s": ["Qmlhc0FkZA=="]}}}}, {"name": "StatefulPartitionedCall/Yolo_v4/add_17/add", "op": "AddV2", "input": ["StatefulPartitionedCall/Yolo_v4/convn_14/BiasAdd", "StatefulPartitionedCall/Yolo_v4/convn_16/BiasAdd"], "attr": {"T": {"type": "DT_FLOAT"}}}, {"name": "StatefulPartitionedCall/Yolo_v4/convn_18/BiasAdd", "op": "_FusedConv2D", "input": ["StatefulPartitionedCall/Yolo_v4/add_17/add", "unknown_23", "unknown_24"], "device": "/device:CPU:0", "attr": {"dilations": {"list": {"i": ["1", "1", "1", "1"]}}, "explicit_paddings": {"list": {}}, "epsilon": {"f": 0.0}, "fused_ops": {"list": {"s": ["Qmlhc0FkZA=="]}}, "padding": {"s": "U0FNRQ=="}, "data_format": {"s": "TkhXQw=="}, "strides": {"list": {"i": ["1", "1", "1", "1"]}}, "use_cudnn_on_gpu": {"b": true}, "num_args": {"i": "1"}, "T": {"type": "DT_FLOAT"}}}, {"name": "StatefulPartitionedCall/Yolo_v4/convn_19/BiasAdd", "op": "_FusedConv2D", "input": ["StatefulPartitionedCall/Yolo_v4/convn_18/BiasAdd", "unknown_25", "unknown_26"], "device": "/device:CPU:0", "attr": {"strides": {"list": {"i": ["1", "1", "1", "1"]}}, "data_format": {"s": "TkhXQw=="}, "fused_ops": {"list": {"s": ["Qmlhc0FkZA=="]}}, "padding": {"s": "U0FNRQ=="}, "epsilon": {"f": 0.0}, "num_args": {"i": "1"}, "use_cudnn_on_gpu": {"b": true}, "T": {"type": "DT_FLOAT"}, "explicit_paddings": {"list": {}}, "dilations": {"list": {"i": ["1", "1", "1", "1"]}}}}, {"name": "StatefulPartitionedCall/Yolo_v4/add_20/add", "op": "AddV2", "input": ["StatefulPartitionedCall/Yolo_v4/add_17/add", "StatefulPartitionedCall/Yolo_v4/convn_19/BiasAdd"], "attr": {"T": {"type": "DT_FLOAT"}}}, {"name": "StatefulPartitionedCall/Yolo_v4/convn_21/BiasAdd", "op": "_FusedConv2D", "input": ["StatefulPartitionedCall/Yolo_v4/add_20/add", "unknown_27", "unknown_28"], "device": "/device:CPU:0", "attr": {"dilations": {"list": {"i": ["1", "1", "1", "1"]}}, "num_args": {"i": "1"}, "explicit_paddings": {"list": {}}, "padding": {"s": "U0FNRQ=="}, "fused_ops": {"list": {"s": ["Qmlhc0FkZA=="]}}, "T": {"type": "DT_FLOAT"}, "epsilon": {"f": 0.0}, "data_format": {"s": "TkhXQw=="}, "use_cudnn_on_gpu": {"b": true}, "strides": {"list": {"i": ["1", "1", "1", "1"]}}}}, {"name": "StatefulPartitionedCall/Yolo_v4/concat_22/concat", "op": "ConcatV2", "input": ["StatefulPartitionedCall/Yolo_v4/convn_21/BiasAdd", "StatefulPartitionedCall/Yolo_v4/convn_12/BiasAdd", "StatefulPartitionedCall/Yolo_v4/concat_22/concat/axis"], "attr": {"N": {"i": "2"}, "Tidx": {"type": "DT_INT32"}, "T": {"type": "DT_FLOAT"}}}, {"name": "StatefulPartitionedCall/Yolo_v4/convn_23/BiasAdd", "op": "_FusedConv2D", "input": ["StatefulPartitionedCall/Yolo_v4/concat_22/concat", "unknown_31", "unknown_32"], "device": "/device:CPU:0", "attr": {"dilations": {"list": {"i": ["1", "1", "1", "1"]}}, "T": {"type": "DT_FLOAT"}, "fused_ops": {"list": {"s": ["Qmlhc0FkZA=="]}}, "strides": {"list": {"i": ["1", "1", "1", "1"]}}, "explicit_paddings": {"list": {}}, "data_format": {"s": "TkhXQw=="}, "epsilon": {"f": 0.0}, "num_args": {"i": "1"}, "padding": {"s": "U0FNRQ=="}, "use_cudnn_on_gpu": {"b": true}}}, {"name": "StatefulPartitionedCall/Yolo_v4/zerop_24/Pad", "op": "Pad", "input": ["StatefulPartitionedCall/Yolo_v4/convn_23/BiasAdd", "StatefulPartitionedCall/Yolo_v4/zerop_24/Pad/paddings"], "attr": {"Tpaddings": {"type": "DT_INT32"}, "T": {"type": "DT_FLOAT"}}}, {"name": "StatefulPartitionedCall/Yolo_v4/convn_24/BiasAdd", "op": "_FusedConv2D", "input": ["StatefulPartitionedCall/Yolo_v4/zerop_24/Pad", "unknown_33", "unknown_34"], "device": "/device:CPU:0", "attr": {"fused_ops": {"list": {"s": ["Qmlhc0FkZA=="]}}, "dilations": {"list": {"i": ["1", "1", "1", "1"]}}, "explicit_paddings": {"list": {}}, "T": {"type": "DT_FLOAT"}, "data_format": {"s": "TkhXQw=="}, "strides": {"list": {"i": ["1", "2", "2", "1"]}}, "padding": {"s": "VkFMSUQ="}, "num_args": {"i": "1"}, "epsilon": {"f": 0.0}, "use_cudnn_on_gpu": {"b": true}}}, {"name": "StatefulPartitionedCall/Yolo_v4/convn_27/BiasAdd", "op": "_FusedConv2D", "input": ["StatefulPartitionedCall/Yolo_v4/convn_24/BiasAdd", "unknown_35", "unknown_36"], "device": "/device:CPU:0", "attr": {"epsilon": {"f": 0.0}, "use_cudnn_on_gpu": {"b": true}, "num_args": {"i": "1"}, "dilations": {"list": {"i": ["1", "1", "1", "1"]}}, "padding": {"s": "U0FNRQ=="}, "strides": {"list": {"i": ["1", "1", "1", "1"]}}, "explicit_paddings": {"list": {}}, "T": {"type": "DT_FLOAT"}, "data_format": {"s": "TkhXQw=="}, "fused_ops": {"list": {"s": ["Qmlhc0FkZA=="]}}}}, {"name": "StatefulPartitionedCall/Yolo_v4/convn_25/BiasAdd", "op": "_FusedConv2D", "input": ["StatefulPartitionedCall/Yolo_v4/convn_24/BiasAdd", "unknown_71", "unknown_72"], "device": "/device:CPU:0", "attr": {"num_args": {"i": "1"}, "use_cudnn_on_gpu": {"b": true}, "explicit_paddings": {"list": {}}, "fused_ops": {"list": {"s": ["Qmlhc0FkZA=="]}}, "dilations": {"list": {"i": ["1", "1", "1", "1"]}}, "strides": {"list": {"i": ["1", "1", "1", "1"]}}, "padding": {"s": "U0FNRQ=="}, "T": {"type": "DT_FLOAT"}, "data_format": {"s": "TkhXQw=="}, "epsilon": {"f": 0.0}}}, {"name": "StatefulPartitionedCall/Yolo_v4/convn_28/BiasAdd", "op": "_FusedConv2D", "input": ["StatefulPartitionedCall/Yolo_v4/convn_27/BiasAdd", "unknown_37", "unknown_38"], "device": "/device:CPU:0", "attr": {"explicit_paddings": {"list": {}}, "dilations": {"list": {"i": ["1", "1", "1", "1"]}}, "strides": {"list": {"i": ["1", "1", "1", "1"]}}, "fused_ops": {"list": {"s": ["Qmlhc0FkZA=="]}}, "data_format": {"s": "TkhXQw=="}, "epsilon": {"f": 0.0}, "num_args": {"i": "1"}, "padding": {"s": "U0FNRQ=="}, "T": {"type": "DT_FLOAT"}, "use_cudnn_on_gpu": {"b": true}}}, {"name": "StatefulPartitionedCall/Yolo_v4/convn_29/BiasAdd", "op": "_FusedConv2D", "input": ["StatefulPartitionedCall/Yolo_v4/convn_28/BiasAdd", "unknown_39", "unknown_40"], "device": "/device:CPU:0", "attr": {"explicit_paddings": {"list": {}}, "T": {"type": "DT_FLOAT"}, "data_format": {"s": "TkhXQw=="}, "fused_ops": {"list": {"s": ["Qmlhc0FkZA=="]}}, "epsilon": {"f": 0.0}, "use_cudnn_on_gpu": {"b": true}, "num_args": {"i": "1"}, "dilations": {"list": {"i": ["1", "1", "1", "1"]}}, "padding": {"s": "U0FNRQ=="}, "strides": {"list": {"i": ["1", "1", "1", "1"]}}}}, {"name": "StatefulPartitionedCall/Yolo_v4/add_30/add", "op": "AddV2", "input": ["StatefulPartitionedCall/Yolo_v4/convn_27/BiasAdd", "StatefulPartitionedCall/Yolo_v4/convn_29/BiasAdd"], "attr": {"T": {"type": "DT_FLOAT"}}}, {"name": "StatefulPartitionedCall/Yolo_v4/convn_31/BiasAdd", "op": "_FusedConv2D", "input": ["StatefulPartitionedCall/Yolo_v4/add_30/add", "unknown_41", "unknown_42"], "device": "/device:CPU:0", "attr": {"explicit_paddings": {"list": {}}, "padding": {"s": "U0FNRQ=="}, "data_format": {"s": "TkhXQw=="}, "strides": {"list": {"i": ["1", "1", "1", "1"]}}, "epsilon": {"f": 0.0}, "T": {"type": "DT_FLOAT"}, "num_args": {"i": "1"}, "use_cudnn_on_gpu": {"b": true}, "fused_ops": {"list": {"s": ["Qmlhc0FkZA=="]}}, "dilations": {"list": {"i": ["1", "1", "1", "1"]}}}}, {"name": "StatefulPartitionedCall/Yolo_v4/convn_32/BiasAdd", "op": "_FusedConv2D", "input": ["StatefulPartitionedCall/Yolo_v4/convn_31/BiasAdd", "unknown_43", "unknown_44"], "device": "/device:CPU:0", "attr": {"epsilon": {"f": 0.0}, "use_cudnn_on_gpu": {"b": true}, "num_args": {"i": "1"}, "explicit_paddings": {"list": {}}, "dilations": {"list": {"i": ["1", "1", "1", "1"]}}, "fused_ops": {"list": {"s": ["Qmlhc0FkZA=="]}}, "padding": {"s": "U0FNRQ=="}, "T": {"type": "DT_FLOAT"}, "strides": {"list": {"i": ["1", "1", "1", "1"]}}, "data_format": {"s": "TkhXQw=="}}}, {"name": "StatefulPartitionedCall/Yolo_v4/add_33/add", "op": "AddV2", "input": ["StatefulPartitionedCall/Yolo_v4/add_30/add", "StatefulPartitionedCall/Yolo_v4/convn_32/BiasAdd"], "attr": {"T": {"type": "DT_FLOAT"}}}, {"name": "StatefulPartitionedCall/Yolo_v4/convn_34/BiasAdd", "op": "_FusedConv2D", "input": ["StatefulPartitionedCall/Yolo_v4/add_33/add", "unknown_45", "unknown_46"], "device": "/device:CPU:0", "attr": {"padding": {"s": "U0FNRQ=="}, "use_cudnn_on_gpu": {"b": true}, "dilations": {"list": {"i": ["1", "1", "1", "1"]}}, "T": {"type": "DT_FLOAT"}, "num_args": {"i": "1"}, "explicit_paddings": {"list": {}}, "epsilon": {"f": 0.0}, "data_format": {"s": "TkhXQw=="}, "fused_ops": {"list": {"s": ["Qmlhc0FkZA=="]}}, "strides": {"list": {"i": ["1", "1", "1", "1"]}}}}, {"name": "StatefulPartitionedCall/Yolo_v4/convn_35/BiasAdd", "op": "_FusedConv2D", "input": ["StatefulPartitionedCall/Yolo_v4/convn_34/BiasAdd", "unknown_47", "unknown_48"], "device": "/device:CPU:0", "attr": {"fused_ops": {"list": {"s": ["Qmlhc0FkZA=="]}}, "padding": {"s": "U0FNRQ=="}, "use_cudnn_on_gpu": {"b": true}, "dilations": {"list": {"i": ["1", "1", "1", "1"]}}, "strides": {"list": {"i": ["1", "1", "1", "1"]}}, "T": {"type": "DT_FLOAT"}, "num_args": {"i": "1"}, "data_format": {"s": "TkhXQw=="}, "epsilon": {"f": 0.0}, "explicit_paddings": {"list": {}}}}, {"name": "StatefulPartitionedCall/Yolo_v4/add_36/add", "op": "AddV2", "input": ["StatefulPartitionedCall/Yolo_v4/add_33/add", "StatefulPartitionedCall/Yolo_v4/convn_35/BiasAdd"], "attr": {"T": {"type": "DT_FLOAT"}}}, {"name": "StatefulPartitionedCall/Yolo_v4/convn_37/BiasAdd", "op": "_FusedConv2D", "input": ["StatefulPartitionedCall/Yolo_v4/add_36/add", "unknown_49", "unknown_50"], "device": "/device:CPU:0", "attr": {"data_format": {"s": "TkhXQw=="}, "num_args": {"i": "1"}, "use_cudnn_on_gpu": {"b": true}, "epsilon": {"f": 0.0}, "T": {"type": "DT_FLOAT"}, "padding": {"s": "U0FNRQ=="}, "dilations": {"list": {"i": ["1", "1", "1", "1"]}}, "strides": {"list": {"i": ["1", "1", "1", "1"]}}, "explicit_paddings": {"list": {}}, "fused_ops": {"list": {"s": ["Qmlhc0FkZA=="]}}}}, {"name": "StatefulPartitionedCall/Yolo_v4/convn_38/BiasAdd", "op": "_FusedConv2D", "input": ["StatefulPartitionedCall/Yolo_v4/convn_37/BiasAdd", "unknown_51", "unknown_52"], "device": "/device:CPU:0", "attr": {"fused_ops": {"list": {"s": ["Qmlhc0FkZA=="]}}, "epsilon": {"f": 0.0}, "strides": {"list": {"i": ["1", "1", "1", "1"]}}, "padding": {"s": "U0FNRQ=="}, "num_args": {"i": "1"}, "T": {"type": "DT_FLOAT"}, "use_cudnn_on_gpu": {"b": true}, "dilations": {"list": {"i": ["1", "1", "1", "1"]}}, "explicit_paddings": {"list": {}}, "data_format": {"s": "TkhXQw=="}}}, {"name": "StatefulPartitionedCall/Yolo_v4/add_39/add", "op": "AddV2", "input": ["StatefulPartitionedCall/Yolo_v4/add_36/add", "StatefulPartitionedCall/Yolo_v4/convn_38/BiasAdd"], "attr": {"T": {"type": "DT_FLOAT"}}}, {"name": "StatefulPartitionedCall/Yolo_v4/convn_40/BiasAdd", "op": "_FusedConv2D", "input": ["StatefulPartitionedCall/Yolo_v4/add_39/add", "unknown_53", "unknown_54"], "device": "/device:CPU:0", "attr": {"epsilon": {"f": 0.0}, "data_format": {"s": "TkhXQw=="}, "use_cudnn_on_gpu": {"b": true}, "fused_ops": {"list": {"s": ["Qmlhc0FkZA=="]}}, "dilations": {"list": {"i": ["1", "1", "1", "1"]}}, "num_args": {"i": "1"}, "T": {"type": "DT_FLOAT"}, "padding": {"s": "U0FNRQ=="}, "strides": {"list": {"i": ["1", "1", "1", "1"]}}, "explicit_paddings": {"list": {}}}}, {"name": "StatefulPartitionedCall/Yolo_v4/convn_41/BiasAdd", "op": "_FusedConv2D", "input": ["StatefulPartitionedCall/Yolo_v4/convn_40/BiasAdd", "unknown_55", "unknown_56"], "device": "/device:CPU:0", "attr": {"num_args": {"i": "1"}, "explicit_paddings": {"list": {}}, "epsilon": {"f": 0.0}, "data_format": {"s": "TkhXQw=="}, "use_cudnn_on_gpu": {"b": true}, "padding": {"s": "U0FNRQ=="}, "T": {"type": "DT_FLOAT"}, "strides": {"list": {"i": ["1", "1", "1", "1"]}}, "fused_ops": {"list": {"s": ["Qmlhc0FkZA=="]}}, "dilations": {"list": {"i": ["1", "1", "1", "1"]}}}}, {"name": "StatefulPartitionedCall/Yolo_v4/add_42/add", "op": "AddV2", "input": ["StatefulPartitionedCall/Yolo_v4/add_39/add", "StatefulPartitionedCall/Yolo_v4/convn_41/BiasAdd"], "attr": {"T": {"type": "DT_FLOAT"}}}, {"name": "StatefulPartitionedCall/Yolo_v4/convn_43/BiasAdd", "op": "_FusedConv2D", "input": ["StatefulPartitionedCall/Yolo_v4/add_42/add", "unknown_57", "unknown_58"], "device": "/device:CPU:0", "attr": {"num_args": {"i": "1"}, "use_cudnn_on_gpu": {"b": true}, "fused_ops": {"list": {"s": ["Qmlhc0FkZA=="]}}, "dilations": {"list": {"i": ["1", "1", "1", "1"]}}, "data_format": {"s": "TkhXQw=="}, "explicit_paddings": {"list": {}}, "padding": {"s": "U0FNRQ=="}, "T": {"type": "DT_FLOAT"}, "epsilon": {"f": 0.0}, "strides": {"list": {"i": ["1", "1", "1", "1"]}}}}, {"name": "StatefulPartitionedCall/Yolo_v4/convn_44/BiasAdd", "op": "_FusedConv2D", "input": ["StatefulPartitionedCall/Yolo_v4/convn_43/BiasAdd", "unknown_59", "unknown_60"], "device": "/device:CPU:0", "attr": {"fused_ops": {"list": {"s": ["Qmlhc0FkZA=="]}}, "data_format": {"s": "TkhXQw=="}, "epsilon": {"f": 0.0}, "strides": {"list": {"i": ["1", "1", "1", "1"]}}, "padding": {"s": "U0FNRQ=="}, "num_args": {"i": "1"}, "T": {"type": "DT_FLOAT"}, "use_cudnn_on_gpu": {"b": true}, "dilations": {"list": {"i": ["1", "1", "1", "1"]}}, "explicit_paddings": {"list": {}}}}, {"name": "StatefulPartitionedCall/Yolo_v4/add_45/add", "op": "AddV2", "input": ["StatefulPartitionedCall/Yolo_v4/add_42/add", "StatefulPartitionedCall/Yolo_v4/convn_44/BiasAdd"], "attr": {"T": {"type": "DT_FLOAT"}}}, {"name": "StatefulPartitionedCall/Yolo_v4/convn_46/BiasAdd", "op": "_FusedConv2D", "input": ["StatefulPartitionedCall/Yolo_v4/add_45/add", "unknown_61", "unknown_62"], "device": "/device:CPU:0", "attr": {"dilations": {"list": {"i": ["1", "1", "1", "1"]}}, "fused_ops": {"list": {"s": ["Qmlhc0FkZA=="]}}, "strides": {"list": {"i": ["1", "1", "1", "1"]}}, "data_format": {"s": "TkhXQw=="}, "explicit_paddings": {"list": {}}, "epsilon": {"f": 0.0}, "num_args": {"i": "1"}, "padding": {"s": "U0FNRQ=="}, "use_cudnn_on_gpu": {"b": true}, "T": {"type": "DT_FLOAT"}}}, {"name": "StatefulPartitionedCall/Yolo_v4/convn_47/BiasAdd", "op": "_FusedConv2D", "input": ["StatefulPartitionedCall/Yolo_v4/convn_46/BiasAdd", "unknown_63", "unknown_64"], "device": "/device:CPU:0", "attr": {"dilations": {"list": {"i": ["1", "1", "1", "1"]}}, "explicit_paddings": {"list": {}}, "data_format": {"s": "TkhXQw=="}, "fused_ops": {"list": {"s": ["Qmlhc0FkZA=="]}}, "epsilon": {"f": 0.0}, "padding": {"s": "U0FNRQ=="}, "strides": {"list": {"i": ["1", "1", "1", "1"]}}, "num_args": {"i": "1"}, "use_cudnn_on_gpu": {"b": true}, "T": {"type": "DT_FLOAT"}}}, {"name": "StatefulPartitionedCall/Yolo_v4/add_48/add", "op": "AddV2", "input": ["StatefulPartitionedCall/Yolo_v4/add_45/add", "StatefulPartitionedCall/Yolo_v4/convn_47/BiasAdd"], "attr": {"T": {"type": "DT_FLOAT"}}}, {"name": "StatefulPartitionedCall/Yolo_v4/convn_49/BiasAdd", "op": "_FusedConv2D", "input": ["StatefulPartitionedCall/Yolo_v4/add_48/add", "unknown_65", "unknown_66"], "device": "/device:CPU:0", "attr": {"fused_ops": {"list": {"s": ["Qmlhc0FkZA=="]}}, "data_format": {"s": "TkhXQw=="}, "T": {"type": "DT_FLOAT"}, "strides": {"list": {"i": ["1", "1", "1", "1"]}}, "epsilon": {"f": 0.0}, "use_cudnn_on_gpu": {"b": true}, "num_args": {"i": "1"}, "dilations": {"list": {"i": ["1", "1", "1", "1"]}}, "explicit_paddings": {"list": {}}, "padding": {"s": "U0FNRQ=="}}}, {"name": "StatefulPartitionedCall/Yolo_v4/convn_50/BiasAdd", "op": "_FusedConv2D", "input": ["StatefulPartitionedCall/Yolo_v4/convn_49/BiasAdd", "unknown_67", "unknown_68"], "device": "/device:CPU:0", "attr": {"data_format": {"s": "TkhXQw=="}, "explicit_paddings": {"list": {}}, "padding": {"s": "U0FNRQ=="}, "T": {"type": "DT_FLOAT"}, "epsilon": {"f": 0.0}, "strides": {"list": {"i": ["1", "1", "1", "1"]}}, "num_args": {"i": "1"}, "use_cudnn_on_gpu": {"b": true}, "fused_ops": {"list": {"s": ["Qmlhc0FkZA=="]}}, "dilations": {"list": {"i": ["1", "1", "1", "1"]}}}}, {"name": "StatefulPartitionedCall/Yolo_v4/add_51/add", "op": "AddV2", "input": ["StatefulPartitionedCall/Yolo_v4/add_48/add", "StatefulPartitionedCall/Yolo_v4/convn_50/BiasAdd"], "attr": {"T": {"type": "DT_FLOAT"}}}, {"name": "StatefulPartitionedCall/Yolo_v4/convn_52/BiasAdd", "op": "_FusedConv2D", "input": ["StatefulPartitionedCall/Yolo_v4/add_51/add", "unknown_69", "unknown_70"], "device": "/device:CPU:0", "attr": {"num_args": {"i": "1"}, "data_format": {"s": "TkhXQw=="}, "epsilon": {"f": 0.0}, "strides": {"list": {"i": ["1", "1", "1", "1"]}}, "T": {"type": "DT_FLOAT"}, "use_cudnn_on_gpu": {"b": true}, "fused_ops": {"list": {"s": ["Qmlhc0FkZA=="]}}, "dilations": {"list": {"i": ["1", "1", "1", "1"]}}, "padding": {"s": "U0FNRQ=="}, "explicit_paddings": {"list": {}}}}, {"name": "StatefulPartitionedCall/Yolo_v4/concat_53/concat", "op": "ConcatV2", "input": ["StatefulPartitionedCall/Yolo_v4/convn_52/BiasAdd", "StatefulPartitionedCall/Yolo_v4/convn_25/BiasAdd", "StatefulPartitionedCall/Yolo_v4/concat_53/concat/axis"], "attr": {"Tidx": {"type": "DT_INT32"}, "T": {"type": "DT_FLOAT"}, "N": {"i": "2"}}}, {"name": "StatefulPartitionedCall/Yolo_v4/convn_54/BiasAdd", "op": "_FusedConv2D", "input": ["StatefulPartitionedCall/Yolo_v4/concat_53/concat", "unknown_73", "unknown_74"], "device": "/device:CPU:0", "attr": {"strides": {"list": {"i": ["1", "1", "1", "1"]}}, "padding": {"s": "U0FNRQ=="}, "T": {"type": "DT_FLOAT"}, "data_format": {"s": "TkhXQw=="}, "explicit_paddings": {"list": {}}, "fused_ops": {"list": {"s": ["Qmlhc0FkZA=="]}}, "epsilon": {"f": 0.0}, "num_args": {"i": "1"}, "use_cudnn_on_gpu": {"b": true}, "dilations": {"list": {"i": ["1", "1", "1", "1"]}}}}, {"name": "StatefulPartitionedCall/Yolo_v4/convn_130/BiasAdd", "op": "_FusedConv2D", "input": ["StatefulPartitionedCall/Yolo_v4/convn_54/BiasAdd", "unknown_171", "unknown_172"], "device": "/device:CPU:0", "attr": {"dilations": {"list": {"i": ["1", "1", "1", "1"]}}, "explicit_paddings": {"list": {}}, "strides": {"list": {"i": ["1", "1", "1", "1"]}}, "data_format": {"s": "TkhXQw=="}, "fused_ops": {"list": {"s": ["Qmlhc0FkZA=="]}}, "use_cudnn_on_gpu": {"b": true}, "num_args": {"i": "1"}, "padding": {"s": "U0FNRQ=="}, "T": {"type": "DT_FLOAT"}, "epsilon": {"f": 0.0}}}, {"name": "StatefulPartitionedCall/Yolo_v4/zerop_55/Pad", "op": "Pad", "input": ["StatefulPartitionedCall/Yolo_v4/convn_54/BiasAdd", "StatefulPartitionedCall/Yolo_v4/zerop_55/Pad/paddings"], "attr": {"T": {"type": "DT_FLOAT"}, "Tpaddings": {"type": "DT_INT32"}}}, {"name": "StatefulPartitionedCall/Yolo_v4/leaky_130/LeakyRelu", "op": "LeakyRelu", "input": ["StatefulPartitionedCall/Yolo_v4/convn_130/BiasAdd"], "attr": {"T": {"type": "DT_FLOAT"}, "alpha": {"f": 0.1}}}, {"name": "StatefulPartitionedCall/Yolo_v4/convn_55/BiasAdd", "op": "_FusedConv2D", "input": ["StatefulPartitionedCall/Yolo_v4/zerop_55/Pad", "unknown_75", "unknown_76"], "device": "/device:CPU:0", "attr": {"epsilon": {"f": 0.0}, "use_cudnn_on_gpu": {"b": true}, "strides": {"list": {"i": ["1", "2", "2", "1"]}}, "dilations": {"list": {"i": ["1", "1", "1", "1"]}}, "T": {"type": "DT_FLOAT"}, "explicit_paddings": {"list": {}}, "data_format": {"s": "TkhXQw=="}, "padding": {"s": "VkFMSUQ="}, "num_args": {"i": "1"}, "fused_ops": {"list": {"s": ["Qmlhc0FkZA=="]}}}}, {"name": "StatefulPartitionedCall/Yolo_v4/convn_58/BiasAdd", "op": "_FusedConv2D", "input": ["StatefulPartitionedCall/Yolo_v4/convn_55/BiasAdd", "unknown_77", "unknown_78"], "device": "/device:CPU:0", "attr": {"T": {"type": "DT_FLOAT"}, "explicit_paddings": {"list": {}}, "padding": {"s": "U0FNRQ=="}, "data_format": {"s": "TkhXQw=="}, "fused_ops": {"list": {"s": ["Qmlhc0FkZA=="]}}, "num_args": {"i": "1"}, "epsilon": {"f": 0.0}, "use_cudnn_on_gpu": {"b": true}, "strides": {"list": {"i": ["1", "1", "1", "1"]}}, "dilations": {"list": {"i": ["1", "1", "1", "1"]}}}}, {"name": "StatefulPartitionedCall/Yolo_v4/convn_56/BiasAdd", "op": "_FusedConv2D", "input": ["StatefulPartitionedCall/Yolo_v4/convn_55/BiasAdd", "unknown_113", "unknown_114"], "device": "/device:CPU:0", "attr": {"num_args": {"i": "1"}, "epsilon": {"f": 0.0}, "use_cudnn_on_gpu": {"b": true}, "T": {"type": "DT_FLOAT"}, "strides": {"list": {"i": ["1", "1", "1", "1"]}}, "padding": {"s": "U0FNRQ=="}, "dilations": {"list": {"i": ["1", "1", "1", "1"]}}, "fused_ops": {"list": {"s": ["Qmlhc0FkZA=="]}}, "explicit_paddings": {"list": {}}, "data_format": {"s": "TkhXQw=="}}}, {"name": "StatefulPartitionedCall/Yolo_v4/convn_59/BiasAdd", "op": "_FusedConv2D", "input": ["StatefulPartitionedCall/Yolo_v4/convn_58/BiasAdd", "unknown_79", "unknown_80"], "device": "/device:CPU:0", "attr": {"strides": {"list": {"i": ["1", "1", "1", "1"]}}, "epsilon": {"f": 0.0}, "data_format": {"s": "TkhXQw=="}, "use_cudnn_on_gpu": {"b": true}, "fused_ops": {"list": {"s": ["Qmlhc0FkZA=="]}}, "dilations": {"list": {"i": ["1", "1", "1", "1"]}}, "padding": {"s": "U0FNRQ=="}, "num_args": {"i": "1"}, "explicit_paddings": {"list": {}}, "T": {"type": "DT_FLOAT"}}}, {"name": "StatefulPartitionedCall/Yolo_v4/convn_60/BiasAdd", "op": "_FusedConv2D", "input": ["StatefulPartitionedCall/Yolo_v4/convn_59/BiasAdd", "unknown_81", "unknown_82"], "device": "/device:CPU:0", "attr": {"padding": {"s": "U0FNRQ=="}, "dilations": {"list": {"i": ["1", "1", "1", "1"]}}, "explicit_paddings": {"list": {}}, "data_format": {"s": "TkhXQw=="}, "strides": {"list": {"i": ["1", "1", "1", "1"]}}, "fused_ops": {"list": {"s": ["Qmlhc0FkZA=="]}}, "num_args": {"i": "1"}, "T": {"type": "DT_FLOAT"}, "epsilon": {"f": 0.0}, "use_cudnn_on_gpu": {"b": true}}}, {"name": "StatefulPartitionedCall/Yolo_v4/add_61/add", "op": "AddV2", "input": ["StatefulPartitionedCall/Yolo_v4/convn_58/BiasAdd", "StatefulPartitionedCall/Yolo_v4/convn_60/BiasAdd"], "attr": {"T": {"type": "DT_FLOAT"}}}, {"name": "StatefulPartitionedCall/Yolo_v4/convn_62/BiasAdd", "op": "_FusedConv2D", "input": ["StatefulPartitionedCall/Yolo_v4/add_61/add", "unknown_83", "unknown_84"], "device": "/device:CPU:0", "attr": {"num_args": {"i": "1"}, "epsilon": {"f": 0.0}, "dilations": {"list": {"i": ["1", "1", "1", "1"]}}, "explicit_paddings": {"list": {}}, "fused_ops": {"list": {"s": ["Qmlhc0FkZA=="]}}, "padding": {"s": "U0FNRQ=="}, "T": {"type": "DT_FLOAT"}, "strides": {"list": {"i": ["1", "1", "1", "1"]}}, "data_format": {"s": "TkhXQw=="}, "use_cudnn_on_gpu": {"b": true}}}, {"name": "StatefulPartitionedCall/Yolo_v4/convn_63/BiasAdd", "op": "_FusedConv2D", "input": ["StatefulPartitionedCall/Yolo_v4/convn_62/BiasAdd", "unknown_85", "unknown_86"], "device": "/device:CPU:0", "attr": {"use_cudnn_on_gpu": {"b": true}, "dilations": {"list": {"i": ["1", "1", "1", "1"]}}, "data_format": {"s": "TkhXQw=="}, "explicit_paddings": {"list": {}}, "fused_ops": {"list": {"s": ["Qmlhc0FkZA=="]}}, "epsilon": {"f": 0.0}, "strides": {"list": {"i": ["1", "1", "1", "1"]}}, "num_args": {"i": "1"}, "padding": {"s": "U0FNRQ=="}, "T": {"type": "DT_FLOAT"}}}, {"name": "StatefulPartitionedCall/Yolo_v4/add_64/add", "op": "AddV2", "input": ["StatefulPartitionedCall/Yolo_v4/add_61/add", "StatefulPartitionedCall/Yolo_v4/convn_63/BiasAdd"], "attr": {"T": {"type": "DT_FLOAT"}}}, {"name": "StatefulPartitionedCall/Yolo_v4/convn_65/BiasAdd", "op": "_FusedConv2D", "input": ["StatefulPartitionedCall/Yolo_v4/add_64/add", "unknown_87", "unknown_88"], "device": "/device:CPU:0", "attr": {"strides": {"list": {"i": ["1", "1", "1", "1"]}}, "padding": {"s": "U0FNRQ=="}, "num_args": {"i": "1"}, "data_format": {"s": "TkhXQw=="}, "explicit_paddings": {"list": {}}, "epsilon": {"f": 0.0}, "fused_ops": {"list": {"s": ["Qmlhc0FkZA=="]}}, "T": {"type": "DT_FLOAT"}, "use_cudnn_on_gpu": {"b": true}, "dilations": {"list": {"i": ["1", "1", "1", "1"]}}}}, {"name": "StatefulPartitionedCall/Yolo_v4/convn_66/BiasAdd", "op": "_FusedConv2D", "input": ["StatefulPartitionedCall/Yolo_v4/convn_65/BiasAdd", "unknown_89", "unknown_90"], "device": "/device:CPU:0", "attr": {"strides": {"list": {"i": ["1", "1", "1", "1"]}}, "padding": {"s": "U0FNRQ=="}, "fused_ops": {"list": {"s": ["Qmlhc0FkZA=="]}}, "dilations": {"list": {"i": ["1", "1", "1", "1"]}}, "explicit_paddings": {"list": {}}, "data_format": {"s": "TkhXQw=="}, "num_args": {"i": "1"}, "epsilon": {"f": 0.0}, "use_cudnn_on_gpu": {"b": true}, "T": {"type": "DT_FLOAT"}}}, {"name": "StatefulPartitionedCall/Yolo_v4/add_67/add", "op": "AddV2", "input": ["StatefulPartitionedCall/Yolo_v4/add_64/add", "StatefulPartitionedCall/Yolo_v4/convn_66/BiasAdd"], "attr": {"T": {"type": "DT_FLOAT"}}}, {"name": "StatefulPartitionedCall/Yolo_v4/convn_68/BiasAdd", "op": "_FusedConv2D", "input": ["StatefulPartitionedCall/Yolo_v4/add_67/add", "unknown_91", "unknown_92"], "device": "/device:CPU:0", "attr": {"data_format": {"s": "TkhXQw=="}, "strides": {"list": {"i": ["1", "1", "1", "1"]}}, "fused_ops": {"list": {"s": ["Qmlhc0FkZA=="]}}, "num_args": {"i": "1"}, "use_cudnn_on_gpu": {"b": true}, "T": {"type": "DT_FLOAT"}, "epsilon": {"f": 0.0}, "padding": {"s": "U0FNRQ=="}, "dilations": {"list": {"i": ["1", "1", "1", "1"]}}, "explicit_paddings": {"list": {}}}}, {"name": "StatefulPartitionedCall/Yolo_v4/convn_69/BiasAdd", "op": "_FusedConv2D", "input": ["StatefulPartitionedCall/Yolo_v4/convn_68/BiasAdd", "unknown_93", "unknown_94"], "device": "/device:CPU:0", "attr": {"data_format": {"s": "TkhXQw=="}, "strides": {"list": {"i": ["1", "1", "1", "1"]}}, "fused_ops": {"list": {"s": ["Qmlhc0FkZA=="]}}, "num_args": {"i": "1"}, "T": {"type": "DT_FLOAT"}, "epsilon": {"f": 0.0}, "use_cudnn_on_gpu": {"b": true}, "padding": {"s": "U0FNRQ=="}, "dilations": {"list": {"i": ["1", "1", "1", "1"]}}, "explicit_paddings": {"list": {}}}}, {"name": "StatefulPartitionedCall/Yolo_v4/add_70/add", "op": "AddV2", "input": ["StatefulPartitionedCall/Yolo_v4/add_67/add", "StatefulPartitionedCall/Yolo_v4/convn_69/BiasAdd"], "attr": {"T": {"type": "DT_FLOAT"}}}, {"name": "StatefulPartitionedCall/Yolo_v4/convn_71/BiasAdd", "op": "_FusedConv2D", "input": ["StatefulPartitionedCall/Yolo_v4/add_70/add", "unknown_95", "unknown_96"], "device": "/device:CPU:0", "attr": {"fused_ops": {"list": {"s": ["Qmlhc0FkZA=="]}}, "T": {"type": "DT_FLOAT"}, "padding": {"s": "U0FNRQ=="}, "data_format": {"s": "TkhXQw=="}, "strides": {"list": {"i": ["1", "1", "1", "1"]}}, "num_args": {"i": "1"}, "use_cudnn_on_gpu": {"b": true}, "epsilon": {"f": 0.0}, "dilations": {"list": {"i": ["1", "1", "1", "1"]}}, "explicit_paddings": {"list": {}}}}, {"name": "StatefulPartitionedCall/Yolo_v4/convn_72/BiasAdd", "op": "_FusedConv2D", "input": ["StatefulPartitionedCall/Yolo_v4/convn_71/BiasAdd", "unknown_97", "unknown_98"], "device": "/device:CPU:0", "attr": {"num_args": {"i": "1"}, "data_format": {"s": "TkhXQw=="}, "explicit_paddings": {"list": {}}, "epsilon": {"f": 0.0}, "padding": {"s": "U0FNRQ=="}, "use_cudnn_on_gpu": {"b": true}, "dilations": {"list": {"i": ["1", "1", "1", "1"]}}, "fused_ops": {"list": {"s": ["Qmlhc0FkZA=="]}}, "T": {"type": "DT_FLOAT"}, "strides": {"list": {"i": ["1", "1", "1", "1"]}}}}, {"name": "StatefulPartitionedCall/Yolo_v4/add_73/add", "op": "AddV2", "input": ["StatefulPartitionedCall/Yolo_v4/add_70/add", "StatefulPartitionedCall/Yolo_v4/convn_72/BiasAdd"], "attr": {"T": {"type": "DT_FLOAT"}}}, {"name": "StatefulPartitionedCall/Yolo_v4/convn_74/BiasAdd", "op": "_FusedConv2D", "input": ["StatefulPartitionedCall/Yolo_v4/add_73/add", "unknown_99", "unknown_100"], "device": "/device:CPU:0", "attr": {"fused_ops": {"list": {"s": ["Qmlhc0FkZA=="]}}, "data_format": {"s": "TkhXQw=="}, "padding": {"s": "U0FNRQ=="}, "strides": {"list": {"i": ["1", "1", "1", "1"]}}, "epsilon": {"f": 0.0}, "use_cudnn_on_gpu": {"b": true}, "num_args": {"i": "1"}, "dilations": {"list": {"i": ["1", "1", "1", "1"]}}, "T": {"type": "DT_FLOAT"}, "explicit_paddings": {"list": {}}}}, {"name": "StatefulPartitionedCall/Yolo_v4/convn_75/BiasAdd", "op": "_FusedConv2D", "input": ["StatefulPartitionedCall/Yolo_v4/convn_74/BiasAdd", "unknown_101", "unknown_102"], "device": "/device:CPU:0", "attr": {"dilations": {"list": {"i": ["1", "1", "1", "1"]}}, "strides": {"list": {"i": ["1", "1", "1", "1"]}}, "explicit_paddings": {"list": {}}, "fused_ops": {"list": {"s": ["Qmlhc0FkZA=="]}}, "data_format": {"s": "TkhXQw=="}, "num_args": {"i": "1"}, "use_cudnn_on_gpu": {"b": true}, "epsilon": {"f": 0.0}, "padding": {"s": "U0FNRQ=="}, "T": {"type": "DT_FLOAT"}}}, {"name": "StatefulPartitionedCall/Yolo_v4/add_76/add", "op": "AddV2", "input": ["StatefulPartitionedCall/Yolo_v4/add_73/add", "StatefulPartitionedCall/Yolo_v4/convn_75/BiasAdd"], "attr": {"T": {"type": "DT_FLOAT"}}}, {"name": "StatefulPartitionedCall/Yolo_v4/convn_77/BiasAdd", "op": "_FusedConv2D", "input": ["StatefulPartitionedCall/Yolo_v4/add_76/add", "unknown_103", "unknown_104"], "device": "/device:CPU:0", "attr": {"epsilon": {"f": 0.0}, "T": {"type": "DT_FLOAT"}, "data_format": {"s": "TkhXQw=="}, "fused_ops": {"list": {"s": ["Qmlhc0FkZA=="]}}, "use_cudnn_on_gpu": {"b": true}, "dilations": {"list": {"i": ["1", "1", "1", "1"]}}, "strides": {"list": {"i": ["1", "1", "1", "1"]}}, "num_args": {"i": "1"}, "explicit_paddings": {"list": {}}, "padding": {"s": "U0FNRQ=="}}}, {"name": "StatefulPartitionedCall/Yolo_v4/convn_78/BiasAdd", "op": "_FusedConv2D", "input": ["StatefulPartitionedCall/Yolo_v4/convn_77/BiasAdd", "unknown_105", "unknown_106"], "device": "/device:CPU:0", "attr": {"T": {"type": "DT_FLOAT"}, "use_cudnn_on_gpu": {"b": true}, "dilations": {"list": {"i": ["1", "1", "1", "1"]}}, "strides": {"list": {"i": ["1", "1", "1", "1"]}}, "padding": {"s": "U0FNRQ=="}, "num_args": {"i": "1"}, "fused_ops": {"list": {"s": ["Qmlhc0FkZA=="]}}, "epsilon": {"f": 0.0}, "data_format": {"s": "TkhXQw=="}, "explicit_paddings": {"list": {}}}}, {"name": "StatefulPartitionedCall/Yolo_v4/add_79/add", "op": "AddV2", "input": ["StatefulPartitionedCall/Yolo_v4/add_76/add", "StatefulPartitionedCall/Yolo_v4/convn_78/BiasAdd"], "attr": {"T": {"type": "DT_FLOAT"}}}, {"name": "StatefulPartitionedCall/Yolo_v4/convn_80/BiasAdd", "op": "_FusedConv2D", "input": ["StatefulPartitionedCall/Yolo_v4/add_79/add", "unknown_107", "unknown_108"], "device": "/device:CPU:0", "attr": {"padding": {"s": "U0FNRQ=="}, "use_cudnn_on_gpu": {"b": true}, "dilations": {"list": {"i": ["1", "1", "1", "1"]}}, "T": {"type": "DT_FLOAT"}, "num_args": {"i": "1"}, "epsilon": {"f": 0.0}, "data_format": {"s": "TkhXQw=="}, "fused_ops": {"list": {"s": ["Qmlhc0FkZA=="]}}, "strides": {"list": {"i": ["1", "1", "1", "1"]}}, "explicit_paddings": {"list": {}}}}, {"name": "StatefulPartitionedCall/Yolo_v4/convn_81/BiasAdd", "op": "_FusedConv2D", "input": ["StatefulPartitionedCall/Yolo_v4/convn_80/BiasAdd", "unknown_109", "unknown_110"], "device": "/device:CPU:0", "attr": {"strides": {"list": {"i": ["1", "1", "1", "1"]}}, "explicit_paddings": {"list": {}}, "fused_ops": {"list": {"s": ["Qmlhc0FkZA=="]}}, "epsilon": {"f": 0.0}, "data_format": {"s": "TkhXQw=="}, "use_cudnn_on_gpu": {"b": true}, "padding": {"s": "U0FNRQ=="}, "dilations": {"list": {"i": ["1", "1", "1", "1"]}}, "T": {"type": "DT_FLOAT"}, "num_args": {"i": "1"}}}, {"name": "StatefulPartitionedCall/Yolo_v4/add_82/add", "op": "AddV2", "input": ["StatefulPartitionedCall/Yolo_v4/add_79/add", "StatefulPartitionedCall/Yolo_v4/convn_81/BiasAdd"], "attr": {"T": {"type": "DT_FLOAT"}}}, {"name": "StatefulPartitionedCall/Yolo_v4/convn_83/BiasAdd", "op": "_FusedConv2D", "input": ["StatefulPartitionedCall/Yolo_v4/add_82/add", "unknown_111", "unknown_112"], "device": "/device:CPU:0", "attr": {"T": {"type": "DT_FLOAT"}, "explicit_paddings": {"list": {}}, "fused_ops": {"list": {"s": ["Qmlhc0FkZA=="]}}, "num_args": {"i": "1"}, "data_format": {"s": "TkhXQw=="}, "use_cudnn_on_gpu": {"b": true}, "dilations": {"list": {"i": ["1", "1", "1", "1"]}}, "strides": {"list": {"i": ["1", "1", "1", "1"]}}, "epsilon": {"f": 0.0}, "padding": {"s": "U0FNRQ=="}}}, {"name": "StatefulPartitionedCall/Yolo_v4/concat_84/concat", "op": "ConcatV2", "input": ["StatefulPartitionedCall/Yolo_v4/convn_83/BiasAdd", "StatefulPartitionedCall/Yolo_v4/convn_56/BiasAdd", "StatefulPartitionedCall/Yolo_v4/concat_84/concat/axis"], "attr": {"N": {"i": "2"}, "T": {"type": "DT_FLOAT"}, "Tidx": {"type": "DT_INT32"}}}, {"name": "StatefulPartitionedCall/Yolo_v4/convn_85/BiasAdd", "op": "_FusedConv2D", "input": ["StatefulPartitionedCall/Yolo_v4/concat_84/concat", "unknown_115", "unknown_116"], "device": "/device:CPU:0", "attr": {"strides": {"list": {"i": ["1", "1", "1", "1"]}}, "num_args": {"i": "1"}, "data_format": {"s": "TkhXQw=="}, "fused_ops": {"list": {"s": ["Qmlhc0FkZA=="]}}, "epsilon": {"f": 0.0}, "padding": {"s": "U0FNRQ=="}, "T": {"type": "DT_FLOAT"}, "explicit_paddings": {"list": {}}, "dilations": {"list": {"i": ["1", "1", "1", "1"]}}, "use_cudnn_on_gpu": {"b": true}}}, {"name": "StatefulPartitionedCall/Yolo_v4/convn_120/BiasAdd", "op": "_FusedConv2D", "input": ["StatefulPartitionedCall/Yolo_v4/convn_85/BiasAdd", "unknown_157", "unknown_158"], "device": "/device:CPU:0", "attr": {"epsilon": {"f": 0.0}, "strides": {"list": {"i": ["1", "1", "1", "1"]}}, "explicit_paddings": {"list": {}}, "fused_ops": {"list": {"s": ["Qmlhc0FkZA=="]}}, "use_cudnn_on_gpu": {"b": true}, "dilations": {"list": {"i": ["1", "1", "1", "1"]}}, "padding": {"s": "U0FNRQ=="}, "num_args": {"i": "1"}, "data_format": {"s": "TkhXQw=="}, "T": {"type": "DT_FLOAT"}}}, {"name": "StatefulPartitionedCall/Yolo_v4/zerop_86/Pad", "op": "Pad", "input": ["StatefulPartitionedCall/Yolo_v4/convn_85/BiasAdd", "StatefulPartitionedCall/Yolo_v4/zerop_86/Pad/paddings"], "attr": {"Tpaddings": {"type": "DT_INT32"}, "T": {"type": "DT_FLOAT"}}}, {"name": "StatefulPartitionedCall/Yolo_v4/leaky_120/LeakyRelu", "op": "LeakyRelu", "input": ["StatefulPartitionedCall/Yolo_v4/convn_120/BiasAdd"], "attr": {"T": {"type": "DT_FLOAT"}, "alpha": {"f": 0.1}}}, {"name": "StatefulPartitionedCall/Yolo_v4/convn_86/BiasAdd", "op": "_FusedConv2D", "input": ["StatefulPartitionedCall/Yolo_v4/zerop_86/Pad", "unknown_117", "unknown_118"], "device": "/device:CPU:0", "attr": {"use_cudnn_on_gpu": {"b": true}, "dilations": {"list": {"i": ["1", "1", "1", "1"]}}, "padding": {"s": "VkFMSUQ="}, "T": {"type": "DT_FLOAT"}, "num_args": {"i": "1"}, "data_format": {"s": "TkhXQw=="}, "fused_ops": {"list": {"s": ["Qmlhc0FkZA=="]}}, "epsilon": {"f": 0.0}, "strides": {"list": {"i": ["1", "2", "2", "1"]}}, "explicit_paddings": {"list": {}}}}, {"name": "StatefulPartitionedCall/Yolo_v4/convn_89/BiasAdd", "op": "_FusedConv2D", "input": ["StatefulPartitionedCall/Yolo_v4/convn_86/BiasAdd", "unknown_119", "unknown_120"], "device": "/device:CPU:0", "attr": {"fused_ops": {"list": {"s": ["Qmlhc0FkZA=="]}}, "num_args": {"i": "1"}, "epsilon": {"f": 0.0}, "data_format": {"s": "TkhXQw=="}, "strides": {"list": {"i": ["1", "1", "1", "1"]}}, "explicit_paddings": {"list": {}}, "padding": {"s": "U0FNRQ=="}, "use_cudnn_on_gpu": {"b": true}, "dilations": {"list": {"i": ["1", "1", "1", "1"]}}, "T": {"type": "DT_FLOAT"}}}, {"name": "StatefulPartitionedCall/Yolo_v4/convn_87/BiasAdd", "op": "_FusedConv2D", "input": ["StatefulPartitionedCall/Yolo_v4/convn_86/BiasAdd", "unknown_139", "unknown_140"], "device": "/device:CPU:0", "attr": {"padding": {"s": "U0FNRQ=="}, "use_cudnn_on_gpu": {"b": true}, "dilations": {"list": {"i": ["1", "1", "1", "1"]}}, "T": {"type": "DT_FLOAT"}, "epsilon": {"f": 0.0}, "explicit_paddings": {"list": {}}, "num_args": {"i": "1"}, "fused_ops": {"list": {"s": ["Qmlhc0FkZA=="]}}, "data_format": {"s": "TkhXQw=="}, "strides": {"list": {"i": ["1", "1", "1", "1"]}}}}, {"name": "StatefulPartitionedCall/Yolo_v4/convn_90/BiasAdd", "op": "_FusedConv2D", "input": ["StatefulPartitionedCall/Yolo_v4/convn_89/BiasAdd", "unknown_121", "unknown_122"], "device": "/device:CPU:0", "attr": {"num_args": {"i": "1"}, "data_format": {"s": "TkhXQw=="}, "epsilon": {"f": 0.0}, "explicit_paddings": {"list": {}}, "fused_ops": {"list": {"s": ["Qmlhc0FkZA=="]}}, "padding": {"s": "U0FNRQ=="}, "dilations": {"list": {"i": ["1", "1", "1", "1"]}}, "use_cudnn_on_gpu": {"b": true}, "T": {"type": "DT_FLOAT"}, "strides": {"list": {"i": ["1", "1", "1", "1"]}}}}, {"name": "StatefulPartitionedCall/Yolo_v4/convn_91/BiasAdd", "op": "_FusedConv2D", "input": ["StatefulPartitionedCall/Yolo_v4/convn_90/BiasAdd", "unknown_123", "unknown_124"], "device": "/device:CPU:0", "attr": {"use_cudnn_on_gpu": {"b": true}, "T": {"type": "DT_FLOAT"}, "fused_ops": {"list": {"s": ["Qmlhc0FkZA=="]}}, "padding": {"s": "U0FNRQ=="}, "strides": {"list": {"i": ["1", "1", "1", "1"]}}, "dilations": {"list": {"i": ["1", "1", "1", "1"]}}, "num_args": {"i": "1"}, "data_format": {"s": "TkhXQw=="}, "explicit_paddings": {"list": {}}, "epsilon": {"f": 0.0}}}, {"name": "StatefulPartitionedCall/Yolo_v4/add_92/add", "op": "AddV2", "input": ["StatefulPartitionedCall/Yolo_v4/convn_89/BiasAdd", "StatefulPartitionedCall/Yolo_v4/convn_91/BiasAdd"], "attr": {"T": {"type": "DT_FLOAT"}}}, {"name": "StatefulPartitionedCall/Yolo_v4/convn_93/BiasAdd", "op": "_FusedConv2D", "input": ["StatefulPartitionedCall/Yolo_v4/add_92/add", "unknown_125", "unknown_126"], "device": "/device:CPU:0", "attr": {"fused_ops": {"list": {"s": ["Qmlhc0FkZA=="]}}, "dilations": {"list": {"i": ["1", "1", "1", "1"]}}, "padding": {"s": "U0FNRQ=="}, "explicit_paddings": {"list": {}}, "num_args": {"i": "1"}, "strides": {"list": {"i": ["1", "1", "1", "1"]}}, "T": {"type": "DT_FLOAT"}, "data_format": {"s": "TkhXQw=="}, "epsilon": {"f": 0.0}, "use_cudnn_on_gpu": {"b": true}}}, {"name": "StatefulPartitionedCall/Yolo_v4/convn_94/BiasAdd", "op": "_FusedConv2D", "input": ["StatefulPartitionedCall/Yolo_v4/convn_93/BiasAdd", "unknown_127", "unknown_128"], "device": "/device:CPU:0", "attr": {"num_args": {"i": "1"}, "data_format": {"s": "TkhXQw=="}, "explicit_paddings": {"list": {}}, "T": {"type": "DT_FLOAT"}, "fused_ops": {"list": {"s": ["Qmlhc0FkZA=="]}}, "padding": {"s": "U0FNRQ=="}, "epsilon": {"f": 0.0}, "use_cudnn_on_gpu": {"b": true}, "dilations": {"list": {"i": ["1", "1", "1", "1"]}}, "strides": {"list": {"i": ["1", "1", "1", "1"]}}}}, {"name": "StatefulPartitionedCall/Yolo_v4/add_95/add", "op": "AddV2", "input": ["StatefulPartitionedCall/Yolo_v4/add_92/add", "StatefulPartitionedCall/Yolo_v4/convn_94/BiasAdd"], "attr": {"T": {"type": "DT_FLOAT"}}}, {"name": "StatefulPartitionedCall/Yolo_v4/convn_96/BiasAdd", "op": "_FusedConv2D", "input": ["StatefulPartitionedCall/Yolo_v4/add_95/add", "unknown_129", "unknown_130"], "device": "/device:CPU:0", "attr": {"padding": {"s": "U0FNRQ=="}, "epsilon": {"f": 0.0}, "use_cudnn_on_gpu": {"b": true}, "strides": {"list": {"i": ["1", "1", "1", "1"]}}, "dilations": {"list": {"i": ["1", "1", "1", "1"]}}, "num_args": {"i": "1"}, "T": {"type": "DT_FLOAT"}, "fused_ops": {"list": {"s": ["Qmlhc0FkZA=="]}}, "data_format": {"s": "TkhXQw=="}, "explicit_paddings": {"list": {}}}}, {"name": "StatefulPartitionedCall/Yolo_v4/convn_97/BiasAdd", "op": "_FusedConv2D", "input": ["StatefulPartitionedCall/Yolo_v4/convn_96/BiasAdd", "unknown_131", "unknown_132"], "device": "/device:CPU:0", "attr": {"epsilon": {"f": 0.0}, "strides": {"list": {"i": ["1", "1", "1", "1"]}}, "num_args": {"i": "1"}, "data_format": {"s": "TkhXQw=="}, "explicit_paddings": {"list": {}}, "padding": {"s": "U0FNRQ=="}, "T": {"type": "DT_FLOAT"}, "use_cudnn_on_gpu": {"b": true}, "dilations": {"list": {"i": ["1", "1", "1", "1"]}}, "fused_ops": {"list": {"s": ["Qmlhc0FkZA=="]}}}}, {"name": "StatefulPartitionedCall/Yolo_v4/add_98/add", "op": "AddV2", "input": ["StatefulPartitionedCall/Yolo_v4/add_95/add", "StatefulPartitionedCall/Yolo_v4/convn_97/BiasAdd"], "attr": {"T": {"type": "DT_FLOAT"}}}, {"name": "StatefulPartitionedCall/Yolo_v4/convn_99/BiasAdd", "op": "_FusedConv2D", "input": ["StatefulPartitionedCall/Yolo_v4/add_98/add", "unknown_133", "unknown_134"], "device": "/device:CPU:0", "attr": {"fused_ops": {"list": {"s": ["Qmlhc0FkZA=="]}}, "data_format": {"s": "TkhXQw=="}, "strides": {"list": {"i": ["1", "1", "1", "1"]}}, "explicit_paddings": {"list": {}}, "epsilon": {"f": 0.0}, "use_cudnn_on_gpu": {"b": true}, "T": {"type": "DT_FLOAT"}, "dilations": {"list": {"i": ["1", "1", "1", "1"]}}, "padding": {"s": "U0FNRQ=="}, "num_args": {"i": "1"}}}, {"name": "StatefulPartitionedCall/Yolo_v4/convn_100/BiasAdd", "op": "_FusedConv2D", "input": ["StatefulPartitionedCall/Yolo_v4/convn_99/BiasAdd", "unknown_135", "unknown_136"], "device": "/device:CPU:0", "attr": {"dilations": {"list": {"i": ["1", "1", "1", "1"]}}, "num_args": {"i": "1"}, "T": {"type": "DT_FLOAT"}, "data_format": {"s": "TkhXQw=="}, "padding": {"s": "U0FNRQ=="}, "strides": {"list": {"i": ["1", "1", "1", "1"]}}, "explicit_paddings": {"list": {}}, "epsilon": {"f": 0.0}, "use_cudnn_on_gpu": {"b": true}, "fused_ops": {"list": {"s": ["Qmlhc0FkZA=="]}}}}, {"name": "StatefulPartitionedCall/Yolo_v4/add_101/add", "op": "AddV2", "input": ["StatefulPartitionedCall/Yolo_v4/add_98/add", "StatefulPartitionedCall/Yolo_v4/convn_100/BiasAdd"], "attr": {"T": {"type": "DT_FLOAT"}}}, {"name": "StatefulPartitionedCall/Yolo_v4/convn_102/BiasAdd", "op": "_FusedConv2D", "input": ["StatefulPartitionedCall/Yolo_v4/add_101/add", "unknown_137", "unknown_138"], "device": "/device:CPU:0", "attr": {"use_cudnn_on_gpu": {"b": true}, "dilations": {"list": {"i": ["1", "1", "1", "1"]}}, "strides": {"list": {"i": ["1", "1", "1", "1"]}}, "epsilon": {"f": 0.0}, "T": {"type": "DT_FLOAT"}, "num_args": {"i": "1"}, "padding": {"s": "U0FNRQ=="}, "data_format": {"s": "TkhXQw=="}, "fused_ops": {"list": {"s": ["Qmlhc0FkZA=="]}}, "explicit_paddings": {"list": {}}}}, {"name": "StatefulPartitionedCall/Yolo_v4/concat_103/concat", "op": "ConcatV2", "input": ["StatefulPartitionedCall/Yolo_v4/convn_102/BiasAdd", "StatefulPartitionedCall/Yolo_v4/convn_87/BiasAdd", "StatefulPartitionedCall/Yolo_v4/concat_103/concat/axis"], "attr": {"Tidx": {"type": "DT_INT32"}, "N": {"i": "2"}, "T": {"type": "DT_FLOAT"}}}, {"name": "StatefulPartitionedCall/Yolo_v4/convn_104/BiasAdd", "op": "_FusedConv2D", "input": ["StatefulPartitionedCall/Yolo_v4/concat_103/concat", "unknown_141", "unknown_142"], "device": "/device:CPU:0", "attr": {"fused_ops": {"list": {"s": ["Qmlhc0FkZA=="]}}, "use_cudnn_on_gpu": {"b": true}, "T": {"type": "DT_FLOAT"}, "padding": {"s": "U0FNRQ=="}, "dilations": {"list": {"i": ["1", "1", "1", "1"]}}, "epsilon": {"f": 0.0}, "num_args": {"i": "1"}, "explicit_paddings": {"list": {}}, "strides": {"list": {"i": ["1", "1", "1", "1"]}}, "data_format": {"s": "TkhXQw=="}}}, {"name": "StatefulPartitionedCall/Yolo_v4/convn_105/BiasAdd", "op": "_FusedConv2D", "input": ["StatefulPartitionedCall/Yolo_v4/convn_104/BiasAdd", "unknown_143", "unknown_144"], "device": "/device:CPU:0", "attr": {"use_cudnn_on_gpu": {"b": true}, "padding": {"s": "U0FNRQ=="}, "strides": {"list": {"i": ["1", "1", "1", "1"]}}, "fused_ops": {"list": {"s": ["Qmlhc0FkZA=="]}}, "dilations": {"list": {"i": ["1", "1", "1", "1"]}}, "epsilon": {"f": 0.0}, "num_args": {"i": "1"}, "explicit_paddings": {"list": {}}, "T": {"type": "DT_FLOAT"}, "data_format": {"s": "TkhXQw=="}}}, {"name": "StatefulPartitionedCall/Yolo_v4/leaky_105/LeakyRelu", "op": "LeakyRelu", "input": ["StatefulPartitionedCall/Yolo_v4/convn_105/BiasAdd"], "attr": {"alpha": {"f": 0.1}, "T": {"type": "DT_FLOAT"}}}, {"name": "StatefulPartitionedCall/Yolo_v4/convn_106/BiasAdd", "op": "_FusedConv2D", "input": ["StatefulPartitionedCall/Yolo_v4/leaky_105/LeakyRelu", "unknown_145", "unknown_146"], "device": "/device:CPU:0", "attr": {"use_cudnn_on_gpu": {"b": true}, "dilations": {"list": {"i": ["1", "1", "1", "1"]}}, "padding": {"s": "U0FNRQ=="}, "T": {"type": "DT_FLOAT"}, "num_args": {"i": "1"}, "data_format": {"s": "TkhXQw=="}, "fused_ops": {"list": {"s": ["Qmlhc0FkZA=="]}}, "explicit_paddings": {"list": {}}, "epsilon": {"f": 0.0}, "strides": {"list": {"i": ["1", "1", "1", "1"]}}}}, {"name": "StatefulPartitionedCall/Yolo_v4/leaky_106/LeakyRelu", "op": "LeakyRelu", "input": ["StatefulPartitionedCall/Yolo_v4/convn_106/BiasAdd"], "attr": {"alpha": {"f": 0.1}, "T": {"type": "DT_FLOAT"}}}, {"name": "StatefulPartitionedCall/Yolo_v4/convn_107/BiasAdd", "op": "_FusedConv2D", "input": ["StatefulPartitionedCall/Yolo_v4/leaky_106/LeakyRelu", "unknown_147", "unknown_148"], "device": "/device:CPU:0", "attr": {"T": {"type": "DT_FLOAT"}, "strides": {"list": {"i": ["1", "1", "1", "1"]}}, "explicit_paddings": {"list": {}}, "fused_ops": {"list": {"s": ["Qmlhc0FkZA=="]}}, "use_cudnn_on_gpu": {"b": true}, "dilations": {"list": {"i": ["1", "1", "1", "1"]}}, "padding": {"s": "U0FNRQ=="}, "num_args": {"i": "1"}, "epsilon": {"f": 0.0}, "data_format": {"s": "TkhXQw=="}}}, {"name": "StatefulPartitionedCall/Yolo_v4/leaky_107/LeakyRelu", "op": "LeakyRelu", "input": ["StatefulPartitionedCall/Yolo_v4/convn_107/BiasAdd"], "attr": {"alpha": {"f": 0.1}, "T": {"type": "DT_FLOAT"}}}, {"name": "StatefulPartitionedCall/Yolo_v4/layer_112/MaxPool", "op": "MaxPool", "input": ["StatefulPartitionedCall/Yolo_v4/leaky_107/LeakyRelu"], "attr": {"strides": {"list": {"i": ["1", "1", "1", "1"]}}, "padding": {"s": "U0FNRQ=="}, "data_format": {"s": "TkhXQw=="}, "T": {"type": "DT_FLOAT"}, "ksize": {"list": {"i": ["1", "13", "13", "1"]}}}}, {"name": "StatefulPartitionedCall/Yolo_v4/layer_110/MaxPool", "op": "MaxPool", "input": ["StatefulPartitionedCall/Yolo_v4/leaky_107/LeakyRelu"], "attr": {"data_format": {"s": "TkhXQw=="}, "strides": {"list": {"i": ["1", "1", "1", "1"]}}, "T": {"type": "DT_FLOAT"}, "padding": {"s": "U0FNRQ=="}, "ksize": {"list": {"i": ["1", "9", "9", "1"]}}}}, {"name": "StatefulPartitionedCall/Yolo_v4/layer_108/MaxPool", "op": "MaxPool", "input": ["StatefulPartitionedCall/Yolo_v4/leaky_107/LeakyRelu"], "attr": {"T": {"type": "DT_FLOAT"}, "ksize": {"list": {"i": ["1", "5", "5", "1"]}}, "strides": {"list": {"i": ["1", "1", "1", "1"]}}, "padding": {"s": "U0FNRQ=="}, "data_format": {"s": "TkhXQw=="}}}, {"name": "StatefulPartitionedCall/Yolo_v4/concat_113/concat", "op": "ConcatV2", "input": ["StatefulPartitionedCall/Yolo_v4/layer_112/MaxPool", "StatefulPartitionedCall/Yolo_v4/layer_110/MaxPool", "StatefulPartitionedCall/Yolo_v4/layer_108/MaxPool", "StatefulPartitionedCall/Yolo_v4/leaky_107/LeakyRelu", "StatefulPartitionedCall/Yolo_v4/concat_113/concat/axis"], "attr": {"N": {"i": "4"}, "T": {"type": "DT_FLOAT"}, "Tidx": {"type": "DT_INT32"}}}, {"name": "StatefulPartitionedCall/Yolo_v4/convn_114/BiasAdd", "op": "_FusedConv2D", "input": ["StatefulPartitionedCall/Yolo_v4/concat_113/concat", "unknown_149", "unknown_150"], "device": "/device:CPU:0", "attr": {"fused_ops": {"list": {"s": ["Qmlhc0FkZA=="]}}, "use_cudnn_on_gpu": {"b": true}, "dilations": {"list": {"i": ["1", "1", "1", "1"]}}, "epsilon": {"f": 0.0}, "padding": {"s": "U0FNRQ=="}, "T": {"type": "DT_FLOAT"}, "num_args": {"i": "1"}, "explicit_paddings": {"list": {}}, "data_format": {"s": "TkhXQw=="}, "strides": {"list": {"i": ["1", "1", "1", "1"]}}}}, {"name": "StatefulPartitionedCall/Yolo_v4/leaky_114/LeakyRelu", "op": "LeakyRelu", "input": ["StatefulPartitionedCall/Yolo_v4/convn_114/BiasAdd"], "attr": {"alpha": {"f": 0.1}, "T": {"type": "DT_FLOAT"}}}, {"name": "StatefulPartitionedCall/Yolo_v4/convn_115/BiasAdd", "op": "_FusedConv2D", "input": ["StatefulPartitionedCall/Yolo_v4/leaky_114/LeakyRelu", "unknown_151", "unknown_152"], "device": "/device:CPU:0", "attr": {"num_args": {"i": "1"}, "data_format": {"s": "TkhXQw=="}, "padding": {"s": "U0FNRQ=="}, "T": {"type": "DT_FLOAT"}, "epsilon": {"f": 0.0}, "strides": {"list": {"i": ["1", "1", "1", "1"]}}, "explicit_paddings": {"list": {}}, "fused_ops": {"list": {"s": ["Qmlhc0FkZA=="]}}, "use_cudnn_on_gpu": {"b": true}, "dilations": {"list": {"i": ["1", "1", "1", "1"]}}}}, {"name": "StatefulPartitionedCall/Yolo_v4/leaky_115/LeakyRelu", "op": "LeakyRelu", "input": ["StatefulPartitionedCall/Yolo_v4/convn_115/BiasAdd"], "attr": {"alpha": {"f": 0.1}, "T": {"type": "DT_FLOAT"}}}, {"name": "StatefulPartitionedCall/Yolo_v4/convn_116/BiasAdd", "op": "_FusedConv2D", "input": ["StatefulPartitionedCall/Yolo_v4/leaky_115/LeakyRelu", "unknown_153", "unknown_154"], "device": "/device:CPU:0", "attr": {"strides": {"list": {"i": ["1", "1", "1", "1"]}}, "explicit_paddings": {"list": {}}, "epsilon": {"f": 0.0}, "use_cudnn_on_gpu": {"b": true}, "fused_ops": {"list": {"s": ["Qmlhc0FkZA=="]}}, "dilations": {"list": {"i": ["1", "1", "1", "1"]}}, "num_args": {"i": "1"}, "T": {"type": "DT_FLOAT"}, "padding": {"s": "U0FNRQ=="}, "data_format": {"s": "TkhXQw=="}}}, {"name": "StatefulPartitionedCall/Yolo_v4/leaky_116/LeakyRelu", "op": "LeakyRelu", "input": ["StatefulPartitionedCall/Yolo_v4/convn_116/BiasAdd"], "attr": {"alpha": {"f": 0.1}, "T": {"type": "DT_FLOAT"}}}, {"name": "StatefulPartitionedCall/Yolo_v4/convn_117/BiasAdd", "op": "_FusedConv2D", "input": ["StatefulPartitionedCall/Yolo_v4/leaky_116/LeakyRelu", "unknown_155", "unknown_156"], "device": "/device:CPU:0", "attr": {"padding": {"s": "U0FNRQ=="}, "data_format": {"s": "TkhXQw=="}, "fused_ops": {"list": {"s": ["Qmlhc0FkZA=="]}}, "use_cudnn_on_gpu": {"b": true}, "strides": {"list": {"i": ["1", "1", "1", "1"]}}, "dilations": {"list": {"i": ["1", "1", "1", "1"]}}, "T": {"type": "DT_FLOAT"}, "epsilon": {"f": 0.0}, "num_args": {"i": "1"}, "explicit_paddings": {"list": {}}}}, {"name": "StatefulPartitionedCall/Yolo_v4/leaky_117/LeakyRelu", "op": "LeakyRelu", "input": ["StatefulPartitionedCall/Yolo_v4/convn_117/BiasAdd"], "attr": {"T": {"type": "DT_FLOAT"}, "alpha": {"f": 0.1}}}, {"name": "StatefulPartitionedCall/Yolo_v4/upsamp_118/Shape", "op": "Shape", "input": ["StatefulPartitionedCall/Yolo_v4/leaky_117/LeakyRelu"], "attr": {"out_type": {"type": "DT_INT32"}, "T": {"type": "DT_FLOAT"}}}, {"name": "StatefulPartitionedCall/Yolo_v4/upsamp_118/strided_slice", "op": "StridedSlice", "input": ["StatefulPartitionedCall/Yolo_v4/upsamp_118/Shape", "StatefulPartitionedCall/Yolo_v4/upsamp_118/strided_slice/stack", "StatefulPartitionedCall/Yolo_v4/upsamp_118/strided_slice/stack_1", "StatefulPartitionedCall/Yolo_v4/upsamp_118/strided_slice/stack_2"], "attr": {"shrink_axis_mask": {"i": "0"}, "T": {"type": "DT_INT32"}, "ellipsis_mask": {"i": "0"}, "end_mask": {"i": "0"}, "Index": {"type": "DT_INT32"}, "new_axis_mask": {"i": "0"}, "begin_mask": {"i": "0"}}}, {"name": "StatefulPartitionedCall/Yolo_v4/upsamp_118/mul", "op": "Mul", "input": ["StatefulPartitionedCall/Yolo_v4/upsamp_118/strided_slice", "StatefulPartitionedCall/Yolo_v4/upsamp_118/Const"], "attr": {"T": {"type": "DT_INT32"}}}, {"name": "StatefulPartitionedCall/Yolo_v4/upsamp_118/resize/ResizeNearestNeighbor", "op": "ResizeNearestNeighbor", "input": ["StatefulPartitionedCall/Yolo_v4/leaky_117/LeakyRelu", "StatefulPartitionedCall/Yolo_v4/upsamp_118/mul"], "attr": {"T": {"type": "DT_FLOAT"}, "half_pixel_centers": {"b": true}, "align_corners": {"b": false}}}, {"name": "StatefulPartitionedCall/Yolo_v4/concat_121/concat", "op": "ConcatV2", "input": ["StatefulPartitionedCall/Yolo_v4/leaky_120/LeakyRelu", "StatefulPartitionedCall/Yolo_v4/upsamp_118/resize/ResizeNearestNeighbor", "StatefulPartitionedCall/Yolo_v4/concat_121/concat/axis"], "attr": {"T": {"type": "DT_FLOAT"}, "Tidx": {"type": "DT_INT32"}, "N": {"i": "2"}}}, {"name": "StatefulPartitionedCall/Yolo_v4/convn_122/BiasAdd", "op": "_FusedConv2D", "input": ["StatefulPartitionedCall/Yolo_v4/concat_121/concat", "unknown_159", "unknown_160"], "device": "/device:CPU:0", "attr": {"num_args": {"i": "1"}, "explicit_paddings": {"list": {}}, "data_format": {"s": "TkhXQw=="}, "use_cudnn_on_gpu": {"b": true}, "epsilon": {"f": 0.0}, "padding": {"s": "U0FNRQ=="}, "fused_ops": {"list": {"s": ["Qmlhc0FkZA=="]}}, "dilations": {"list": {"i": ["1", "1", "1", "1"]}}, "T": {"type": "DT_FLOAT"}, "strides": {"list": {"i": ["1", "1", "1", "1"]}}}}, {"name": "StatefulPartitionedCall/Yolo_v4/leaky_122/LeakyRelu", "op": "LeakyRelu", "input": ["StatefulPartitionedCall/Yolo_v4/convn_122/BiasAdd"], "attr": {"alpha": {"f": 0.1}, "T": {"type": "DT_FLOAT"}}}, {"name": "StatefulPartitionedCall/Yolo_v4/convn_123/BiasAdd", "op": "_FusedConv2D", "input": ["StatefulPartitionedCall/Yolo_v4/leaky_122/LeakyRelu", "unknown_161", "unknown_162"], "device": "/device:CPU:0", "attr": {"data_format": {"s": "TkhXQw=="}, "explicit_paddings": {"list": {}}, "epsilon": {"f": 0.0}, "use_cudnn_on_gpu": {"b": true}, "fused_ops": {"list": {"s": ["Qmlhc0FkZA=="]}}, "T": {"type": "DT_FLOAT"}, "padding": {"s": "U0FNRQ=="}, "strides": {"list": {"i": ["1", "1", "1", "1"]}}, "dilations": {"list": {"i": ["1", "1", "1", "1"]}}, "num_args": {"i": "1"}}}, {"name": "StatefulPartitionedCall/Yolo_v4/leaky_123/LeakyRelu", "op": "LeakyRelu", "input": ["StatefulPartitionedCall/Yolo_v4/convn_123/BiasAdd"], "attr": {"alpha": {"f": 0.1}, "T": {"type": "DT_FLOAT"}}}, {"name": "StatefulPartitionedCall/Yolo_v4/convn_124/BiasAdd", "op": "_FusedConv2D", "input": ["StatefulPartitionedCall/Yolo_v4/leaky_123/LeakyRelu", "unknown_163", "unknown_164"], "device": "/device:CPU:0", "attr": {"num_args": {"i": "1"}, "fused_ops": {"list": {"s": ["Qmlhc0FkZA=="]}}, "T": {"type": "DT_FLOAT"}, "data_format": {"s": "TkhXQw=="}, "explicit_paddings": {"list": {}}, "padding": {"s": "U0FNRQ=="}, "epsilon": {"f": 0.0}, "use_cudnn_on_gpu": {"b": true}, "strides": {"list": {"i": ["1", "1", "1", "1"]}}, "dilations": {"list": {"i": ["1", "1", "1", "1"]}}}}, {"name": "StatefulPartitionedCall/Yolo_v4/leaky_124/LeakyRelu", "op": "LeakyRelu", "input": ["StatefulPartitionedCall/Yolo_v4/convn_124/BiasAdd"], "attr": {"alpha": {"f": 0.1}, "T": {"type": "DT_FLOAT"}}}, {"name": "StatefulPartitionedCall/Yolo_v4/convn_125/BiasAdd", "op": "_FusedConv2D", "input": ["StatefulPartitionedCall/Yolo_v4/leaky_124/LeakyRelu", "unknown_165", "unknown_166"], "device": "/device:CPU:0", "attr": {"T": {"type": "DT_FLOAT"}, "explicit_paddings": {"list": {}}, "epsilon": {"f": 0.0}, "strides": {"list": {"i": ["1", "1", "1", "1"]}}, "fused_ops": {"list": {"s": ["Qmlhc0FkZA=="]}}, "use_cudnn_on_gpu": {"b": true}, "dilations": {"list": {"i": ["1", "1", "1", "1"]}}, "padding": {"s": "U0FNRQ=="}, "num_args": {"i": "1"}, "data_format": {"s": "TkhXQw=="}}}, {"name": "StatefulPartitionedCall/Yolo_v4/leaky_125/LeakyRelu", "op": "LeakyRelu", "input": ["StatefulPartitionedCall/Yolo_v4/convn_125/BiasAdd"], "attr": {"alpha": {"f": 0.1}, "T": {"type": "DT_FLOAT"}}}, {"name": "StatefulPartitionedCall/Yolo_v4/convn_126/BiasAdd", "op": "_FusedConv2D", "input": ["StatefulPartitionedCall/Yolo_v4/leaky_125/LeakyRelu", "unknown_167", "unknown_168"], "device": "/device:CPU:0", "attr": {"num_args": {"i": "1"}, "data_format": {"s": "TkhXQw=="}, "fused_ops": {"list": {"s": ["Qmlhc0FkZA=="]}}, "strides": {"list": {"i": ["1", "1", "1", "1"]}}, "explicit_paddings": {"list": {}}, "T": {"type": "DT_FLOAT"}, "padding": {"s": "U0FNRQ=="}, "epsilon": {"f": 0.0}, "use_cudnn_on_gpu": {"b": true}, "dilations": {"list": {"i": ["1", "1", "1", "1"]}}}}, {"name": "StatefulPartitionedCall/Yolo_v4/leaky_126/LeakyRelu", "op": "LeakyRelu", "input": ["StatefulPartitionedCall/Yolo_v4/convn_126/BiasAdd"], "attr": {"alpha": {"f": 0.1}, "T": {"type": "DT_FLOAT"}}}, {"name": "StatefulPartitionedCall/Yolo_v4/convn_127/BiasAdd", "op": "_FusedConv2D", "input": ["StatefulPartitionedCall/Yolo_v4/leaky_126/LeakyRelu", "unknown_169", "unknown_170"], "device": "/device:CPU:0", "attr": {"dilations": {"list": {"i": ["1", "1", "1", "1"]}}, "fused_ops": {"list": {"s": ["Qmlhc0FkZA=="]}}, "T": {"type": "DT_FLOAT"}, "epsilon": {"f": 0.0}, "padding": {"s": "U0FNRQ=="}, "num_args": {"i": "1"}, "explicit_paddings": {"list": {}}, "strides": {"list": {"i": ["1", "1", "1", "1"]}}, "data_format": {"s": "TkhXQw=="}, "use_cudnn_on_gpu": {"b": true}}}, {"name": "StatefulPartitionedCall/Yolo_v4/leaky_127/LeakyRelu", "op": "LeakyRelu", "input": ["StatefulPartitionedCall/Yolo_v4/convn_127/BiasAdd"], "attr": {"alpha": {"f": 0.1}, "T": {"type": "DT_FLOAT"}}}, {"name": "StatefulPartitionedCall/Yolo_v4/upsamp_128/Shape", "op": "Shape", "input": ["StatefulPartitionedCall/Yolo_v4/leaky_127/LeakyRelu"], "attr": {"T": {"type": "DT_FLOAT"}, "out_type": {"type": "DT_INT32"}}}, {"name": "StatefulPartitionedCall/Yolo_v4/upsamp_128/strided_slice", "op": "StridedSlice", "input": ["StatefulPartitionedCall/Yolo_v4/upsamp_128/Shape", "StatefulPartitionedCall/Yolo_v4/upsamp_128/strided_slice/stack", "StatefulPartitionedCall/Yolo_v4/upsamp_128/strided_slice/stack_1", "StatefulPartitionedCall/Yolo_v4/upsamp_128/strided_slice/stack_2"], "attr": {"begin_mask": {"i": "0"}, "ellipsis_mask": {"i": "0"}, "shrink_axis_mask": {"i": "0"}, "new_axis_mask": {"i": "0"}, "T": {"type": "DT_INT32"}, "Index": {"type": "DT_INT32"}, "end_mask": {"i": "0"}}}, {"name": "StatefulPartitionedCall/Yolo_v4/upsamp_128/mul", "op": "Mul", "input": ["StatefulPartitionedCall/Yolo_v4/upsamp_128/strided_slice", "StatefulPartitionedCall/Yolo_v4/upsamp_128/Const"], "attr": {"T": {"type": "DT_INT32"}}}, {"name": "StatefulPartitionedCall/Yolo_v4/upsamp_128/resize/ResizeNearestNeighbor", "op": "ResizeNearestNeighbor", "input": ["StatefulPartitionedCall/Yolo_v4/leaky_127/LeakyRelu", "StatefulPartitionedCall/Yolo_v4/upsamp_128/mul"], "attr": {"align_corners": {"b": false}, "T": {"type": "DT_FLOAT"}, "half_pixel_centers": {"b": true}}}, {"name": "StatefulPartitionedCall/Yolo_v4/concat_131/concat", "op": "ConcatV2", "input": ["StatefulPartitionedCall/Yolo_v4/leaky_130/LeakyRelu", "StatefulPartitionedCall/Yolo_v4/upsamp_128/resize/ResizeNearestNeighbor", "StatefulPartitionedCall/Yolo_v4/concat_131/concat/axis"], "attr": {"T": {"type": "DT_FLOAT"}, "N": {"i": "2"}, "Tidx": {"type": "DT_INT32"}}}, {"name": "StatefulPartitionedCall/Yolo_v4/convn_132/BiasAdd", "op": "_FusedConv2D", "input": ["StatefulPartitionedCall/Yolo_v4/concat_131/concat", "unknown_173", "unknown_174"], "device": "/device:CPU:0", "attr": {"use_cudnn_on_gpu": {"b": true}, "padding": {"s": "U0FNRQ=="}, "explicit_paddings": {"list": {}}, "T": {"type": "DT_FLOAT"}, "num_args": {"i": "1"}, "epsilon": {"f": 0.0}, "data_format": {"s": "TkhXQw=="}, "fused_ops": {"list": {"s": ["Qmlhc0FkZA=="]}}, "dilations": {"list": {"i": ["1", "1", "1", "1"]}}, "strides": {"list": {"i": ["1", "1", "1", "1"]}}}}, {"name": "StatefulPartitionedCall/Yolo_v4/leaky_132/LeakyRelu", "op": "LeakyRelu", "input": ["StatefulPartitionedCall/Yolo_v4/convn_132/BiasAdd"], "attr": {"T": {"type": "DT_FLOAT"}, "alpha": {"f": 0.1}}}, {"name": "StatefulPartitionedCall/Yolo_v4/convn_133/BiasAdd", "op": "_FusedConv2D", "input": ["StatefulPartitionedCall/Yolo_v4/leaky_132/LeakyRelu", "unknown_175", "unknown_176"], "device": "/device:CPU:0", "attr": {"strides": {"list": {"i": ["1", "1", "1", "1"]}}, "padding": {"s": "U0FNRQ=="}, "use_cudnn_on_gpu": {"b": true}, "T": {"type": "DT_FLOAT"}, "explicit_paddings": {"list": {}}, "fused_ops": {"list": {"s": ["Qmlhc0FkZA=="]}}, "num_args": {"i": "1"}, "epsilon": {"f": 0.0}, "data_format": {"s": "TkhXQw=="}, "dilations": {"list": {"i": ["1", "1", "1", "1"]}}}}, {"name": "StatefulPartitionedCall/Yolo_v4/leaky_133/LeakyRelu", "op": "LeakyRelu", "input": ["StatefulPartitionedCall/Yolo_v4/convn_133/BiasAdd"], "attr": {"alpha": {"f": 0.1}, "T": {"type": "DT_FLOAT"}}}, {"name": "StatefulPartitionedCall/Yolo_v4/convn_134/BiasAdd", "op": "_FusedConv2D", "input": ["StatefulPartitionedCall/Yolo_v4/leaky_133/LeakyRelu", "unknown_177", "unknown_178"], "device": "/device:CPU:0", "attr": {"fused_ops": {"list": {"s": ["Qmlhc0FkZA=="]}}, "dilations": {"list": {"i": ["1", "1", "1", "1"]}}, "T": {"type": "DT_FLOAT"}, "num_args": {"i": "1"}, "epsilon": {"f": 0.0}, "padding": {"s": "U0FNRQ=="}, "explicit_paddings": {"list": {}}, "data_format": {"s": "TkhXQw=="}, "strides": {"list": {"i": ["1", "1", "1", "1"]}}, "use_cudnn_on_gpu": {"b": true}}}, {"name": "StatefulPartitionedCall/Yolo_v4/leaky_134/LeakyRelu", "op": "LeakyRelu", "input": ["StatefulPartitionedCall/Yolo_v4/convn_134/BiasAdd"], "attr": {"alpha": {"f": 0.1}, "T": {"type": "DT_FLOAT"}}}, {"name": "StatefulPartitionedCall/Yolo_v4/convn_135/BiasAdd", "op": "_FusedConv2D", "input": ["StatefulPartitionedCall/Yolo_v4/leaky_134/LeakyRelu", "unknown_179", "unknown_180"], "device": "/device:CPU:0", "attr": {"num_args": {"i": "1"}, "epsilon": {"f": 0.0}, "fused_ops": {"list": {"s": ["Qmlhc0FkZA=="]}}, "data_format": {"s": "TkhXQw=="}, "strides": {"list": {"i": ["1", "1", "1", "1"]}}, "explicit_paddings": {"list": {}}, "T": {"type": "DT_FLOAT"}, "use_cudnn_on_gpu": {"b": true}, "dilations": {"list": {"i": ["1", "1", "1", "1"]}}, "padding": {"s": "U0FNRQ=="}}}, {"name": "StatefulPartitionedCall/Yolo_v4/leaky_135/LeakyRelu", "op": "LeakyRelu", "input": ["StatefulPartitionedCall/Yolo_v4/convn_135/BiasAdd"], "attr": {"alpha": {"f": 0.1}, "T": {"type": "DT_FLOAT"}}}, {"name": "StatefulPartitionedCall/Yolo_v4/convn_136/BiasAdd", "op": "_FusedConv2D", "input": ["StatefulPartitionedCall/Yolo_v4/leaky_135/LeakyRelu", "unknown_181", "unknown_182"], "device": "/device:CPU:0", "attr": {"num_args": {"i": "1"}, "epsilon": {"f": 0.0}, "T": {"type": "DT_FLOAT"}, "explicit_paddings": {"list": {}}, "data_format": {"s": "TkhXQw=="}, "use_cudnn_on_gpu": {"b": true}, "fused_ops": {"list": {"s": ["Qmlhc0FkZA=="]}}, "padding": {"s": "U0FNRQ=="}, "strides": {"list": {"i": ["1", "1", "1", "1"]}}, "dilations": {"list": {"i": ["1", "1", "1", "1"]}}}}, {"name": "StatefulPartitionedCall/Yolo_v4/leaky_136/LeakyRelu", "op": "LeakyRelu", "input": ["StatefulPartitionedCall/Yolo_v4/convn_136/BiasAdd"], "attr": {"alpha": {"f": 0.1}, "T": {"type": "DT_FLOAT"}}}, {"name": "StatefulPartitionedCall/Yolo_v4/convn_137/BiasAdd", "op": "_FusedConv2D", "input": ["StatefulPartitionedCall/Yolo_v4/leaky_136/LeakyRelu", "unknown_211", "unknown_212"], "device": "/device:CPU:0", "attr": {"num_args": {"i": "1"}, "epsilon": {"f": 0.0}, "data_format": {"s": "TkhXQw=="}, "fused_ops": {"list": {"s": ["Qmlhc0FkZA=="]}}, "strides": {"list": {"i": ["1", "1", "1", "1"]}}, "dilations": {"list": {"i": ["1", "1", "1", "1"]}}, "use_cudnn_on_gpu": {"b": true}, "padding": {"s": "U0FNRQ=="}, "T": {"type": "DT_FLOAT"}, "explicit_paddings": {"list": {}}}}, {"name": "StatefulPartitionedCall/Yolo_v4/zerop_141/Pad", "op": "Pad", "input": ["StatefulPartitionedCall/Yolo_v4/leaky_136/LeakyRelu", "StatefulPartitionedCall/Yolo_v4/zerop_141/Pad/paddings"], "attr": {"Tpaddings": {"type": "DT_INT32"}, "T": {"type": "DT_FLOAT"}}}, {"name": "StatefulPartitionedCall/Yolo_v4/leaky_137/LeakyRelu", "op": "LeakyRelu", "input": ["StatefulPartitionedCall/Yolo_v4/convn_137/BiasAdd"], "attr": {"T": {"type": "DT_FLOAT"}, "alpha": {"f": 0.1}}}, {"name": "StatefulPartitionedCall/Yolo_v4/convn_141/BiasAdd", "op": "_FusedConv2D", "input": ["StatefulPartitionedCall/Yolo_v4/zerop_141/Pad", "unknown_183", "unknown_184"], "device": "/device:CPU:0", "attr": {"use_cudnn_on_gpu": {"b": true}, "T": {"type": "DT_FLOAT"}, "explicit_paddings": {"list": {}}, "num_args": {"i": "1"}, "padding": {"s": "VkFMSUQ="}, "strides": {"list": {"i": ["1", "2", "2", "1"]}}, "epsilon": {"f": 0.0}, "data_format": {"s": "TkhXQw=="}, "fused_ops": {"list": {"s": ["Qmlhc0FkZA=="]}}, "dilations": {"list": {"i": ["1", "1", "1", "1"]}}}}, {"name": "StatefulPartitionedCall/Yolo_v4/convn_138/BiasAdd", "op": "_FusedConv2D", "input": ["StatefulPartitionedCall/Yolo_v4/leaky_137/LeakyRelu", "unknown_217", "unknown_218"], "device": "/device:CPU:0", "attr": {"num_args": {"i": "1"}, "fused_ops": {"list": {"s": ["Qmlhc0FkZA=="]}}, "strides": {"list": {"i": ["1", "1", "1", "1"]}}, "epsilon": {"f": 0.0}, "data_format": {"s": "TkhXQw=="}, "dilations": {"list": {"i": ["1", "1", "1", "1"]}}, "use_cudnn_on_gpu": {"b": true}, "T": {"type": "DT_FLOAT"}, "padding": {"s": "U0FNRQ=="}, "explicit_paddings": {"list": {}}}}, {"name": "StatefulPartitionedCall/Yolo_v4/leaky_141/LeakyRelu", "op": "LeakyRelu", "input": ["StatefulPartitionedCall/Yolo_v4/convn_141/BiasAdd"], "attr": {"T": {"type": "DT_FLOAT"}, "alpha": {"f": 0.1}}}, {"name": "Identity", "op": "Identity", "input": ["StatefulPartitionedCall/Yolo_v4/convn_138/BiasAdd"], "attr": {"T": {"type": "DT_FLOAT"}}}, {"name": "StatefulPartitionedCall/Yolo_v4/concat_142/concat", "op": "ConcatV2", "input": ["StatefulPartitionedCall/Yolo_v4/leaky_141/LeakyRelu", "StatefulPartitionedCall/Yolo_v4/leaky_126/LeakyRelu", "StatefulPartitionedCall/Yolo_v4/concat_142/concat/axis"], "attr": {"T": {"type": "DT_FLOAT"}, "Tidx": {"type": "DT_INT32"}, "N": {"i": "2"}}}, {"name": "StatefulPartitionedCall/Yolo_v4/convn_143/BiasAdd", "op": "_FusedConv2D", "input": ["StatefulPartitionedCall/Yolo_v4/concat_142/concat", "unknown_185", "unknown_186"], "device": "/device:CPU:0", "attr": {"epsilon": {"f": 0.0}, "explicit_paddings": {"list": {}}, "padding": {"s": "U0FNRQ=="}, "data_format": {"s": "TkhXQw=="}, "fused_ops": {"list": {"s": ["Qmlhc0FkZA=="]}}, "use_cudnn_on_gpu": {"b": true}, "dilations": {"list": {"i": ["1", "1", "1", "1"]}}, "strides": {"list": {"i": ["1", "1", "1", "1"]}}, "T": {"type": "DT_FLOAT"}, "num_args": {"i": "1"}}}, {"name": "StatefulPartitionedCall/Yolo_v4/leaky_143/LeakyRelu", "op": "LeakyRelu", "input": ["StatefulPartitionedCall/Yolo_v4/convn_143/BiasAdd"], "attr": {"T": {"type": "DT_FLOAT"}, "alpha": {"f": 0.1}}}, {"name": "StatefulPartitionedCall/Yolo_v4/convn_144/BiasAdd", "op": "_FusedConv2D", "input": ["StatefulPartitionedCall/Yolo_v4/leaky_143/LeakyRelu", "unknown_187", "unknown_188"], "device": "/device:CPU:0", "attr": {"fused_ops": {"list": {"s": ["Qmlhc0FkZA=="]}}, "epsilon": {"f": 0.0}, "T": {"type": "DT_FLOAT"}, "data_format": {"s": "TkhXQw=="}, "use_cudnn_on_gpu": {"b": true}, "dilations": {"list": {"i": ["1", "1", "1", "1"]}}, "padding": {"s": "U0FNRQ=="}, "strides": {"list": {"i": ["1", "1", "1", "1"]}}, "explicit_paddings": {"list": {}}, "num_args": {"i": "1"}}}, {"name": "StatefulPartitionedCall/Yolo_v4/leaky_144/LeakyRelu", "op": "LeakyRelu", "input": ["StatefulPartitionedCall/Yolo_v4/convn_144/BiasAdd"], "attr": {"alpha": {"f": 0.1}, "T": {"type": "DT_FLOAT"}}}, {"name": "StatefulPartitionedCall/Yolo_v4/convn_145/BiasAdd", "op": "_FusedConv2D", "input": ["StatefulPartitionedCall/Yolo_v4/leaky_144/LeakyRelu", "unknown_189", "unknown_190"], "device": "/device:CPU:0", "attr": {"T": {"type": "DT_FLOAT"}, "explicit_paddings": {"list": {}}, "padding": {"s": "U0FNRQ=="}, "num_args": {"i": "1"}, "data_format": {"s": "TkhXQw=="}, "fused_ops": {"list": {"s": ["Qmlhc0FkZA=="]}}, "epsilon": {"f": 0.0}, "dilations": {"list": {"i": ["1", "1", "1", "1"]}}, "strides": {"list": {"i": ["1", "1", "1", "1"]}}, "use_cudnn_on_gpu": {"b": true}}}, {"name": "StatefulPartitionedCall/Yolo_v4/leaky_145/LeakyRelu", "op": "LeakyRelu", "input": ["StatefulPartitionedCall/Yolo_v4/convn_145/BiasAdd"], "attr": {"T": {"type": "DT_FLOAT"}, "alpha": {"f": 0.1}}}, {"name": "StatefulPartitionedCall/Yolo_v4/convn_146/BiasAdd", "op": "_FusedConv2D", "input": ["StatefulPartitionedCall/Yolo_v4/leaky_145/LeakyRelu", "unknown_191", "unknown_192"], "device": "/device:CPU:0", "attr": {"fused_ops": {"list": {"s": ["Qmlhc0FkZA=="]}}, "T": {"type": "DT_FLOAT"}, "dilations": {"list": {"i": ["1", "1", "1", "1"]}}, "num_args": {"i": "1"}, "epsilon": {"f": 0.0}, "data_format": {"s": "TkhXQw=="}, "padding": {"s": "U0FNRQ=="}, "strides": {"list": {"i": ["1", "1", "1", "1"]}}, "explicit_paddings": {"list": {}}, "use_cudnn_on_gpu": {"b": true}}}, {"name": "StatefulPartitionedCall/Yolo_v4/leaky_146/LeakyRelu", "op": "LeakyRelu", "input": ["StatefulPartitionedCall/Yolo_v4/convn_146/BiasAdd"], "attr": {"T": {"type": "DT_FLOAT"}, "alpha": {"f": 0.1}}}, {"name": "StatefulPartitionedCall/Yolo_v4/convn_147/BiasAdd", "op": "_FusedConv2D", "input": ["StatefulPartitionedCall/Yolo_v4/leaky_146/LeakyRelu", "unknown_193", "unknown_194"], "device": "/device:CPU:0", "attr": {"T": {"type": "DT_FLOAT"}, "use_cudnn_on_gpu": {"b": true}, "dilations": {"list": {"i": ["1", "1", "1", "1"]}}, "padding": {"s": "U0FNRQ=="}, "num_args": {"i": "1"}, "epsilon": {"f": 0.0}, "explicit_paddings": {"list": {}}, "data_format": {"s": "TkhXQw=="}, "fused_ops": {"list": {"s": ["Qmlhc0FkZA=="]}}, "strides": {"list": {"i": ["1", "1", "1", "1"]}}}}, {"name": "StatefulPartitionedCall/Yolo_v4/leaky_147/LeakyRelu", "op": "LeakyRelu", "input": ["StatefulPartitionedCall/Yolo_v4/convn_147/BiasAdd"], "attr": {"alpha": {"f": 0.1}, "T": {"type": "DT_FLOAT"}}}, {"name": "StatefulPartitionedCall/Yolo_v4/convn_148/BiasAdd", "op": "_FusedConv2D", "input": ["StatefulPartitionedCall/Yolo_v4/leaky_147/LeakyRelu", "unknown_209", "unknown_210"], "device": "/device:CPU:0", "attr": {"fused_ops": {"list": {"s": ["Qmlhc0FkZA=="]}}, "data_format": {"s": "TkhXQw=="}, "explicit_paddings": {"list": {}}, "padding": {"s": "U0FNRQ=="}, "use_cudnn_on_gpu": {"b": true}, "strides": {"list": {"i": ["1", "1", "1", "1"]}}, "T": {"type": "DT_FLOAT"}, "dilations": {"list": {"i": ["1", "1", "1", "1"]}}, "num_args": {"i": "1"}, "epsilon": {"f": 0.0}}}, {"name": "StatefulPartitionedCall/Yolo_v4/zerop_152/Pad", "op": "Pad", "input": ["StatefulPartitionedCall/Yolo_v4/leaky_147/LeakyRelu", "StatefulPartitionedCall/Yolo_v4/zerop_152/Pad/paddings"], "attr": {"Tpaddings": {"type": "DT_INT32"}, "T": {"type": "DT_FLOAT"}}}, {"name": "StatefulPartitionedCall/Yolo_v4/leaky_148/LeakyRelu", "op": "LeakyRelu", "input": ["StatefulPartitionedCall/Yolo_v4/convn_148/BiasAdd"], "attr": {"alpha": {"f": 0.1}, "T": {"type": "DT_FLOAT"}}}, {"name": "StatefulPartitionedCall/Yolo_v4/convn_152/BiasAdd", "op": "_FusedConv2D", "input": ["StatefulPartitionedCall/Yolo_v4/zerop_152/Pad", "unknown_195", "unknown_196"], "device": "/device:CPU:0", "attr": {"data_format": {"s": "TkhXQw=="}, "padding": {"s": "VkFMSUQ="}, "epsilon": {"f": 0.0}, "use_cudnn_on_gpu": {"b": true}, "dilations": {"list": {"i": ["1", "1", "1", "1"]}}, "strides": {"list": {"i": ["1", "2", "2", "1"]}}, "explicit_paddings": {"list": {}}, "num_args": {"i": "1"}, "T": {"type": "DT_FLOAT"}, "fused_ops": {"list": {"s": ["Qmlhc0FkZA=="]}}}}, {"name": "StatefulPartitionedCall/Yolo_v4/convn_149/BiasAdd", "op": "_FusedConv2D", "input": ["StatefulPartitionedCall/Yolo_v4/leaky_148/LeakyRelu", "unknown_215", "unknown_216"], "device": "/device:CPU:0", "attr": {"explicit_paddings": {"list": {}}, "num_args": {"i": "1"}, "data_format": {"s": "TkhXQw=="}, "fused_ops": {"list": {"s": ["Qmlhc0FkZA=="]}}, "epsilon": {"f": 0.0}, "dilations": {"list": {"i": ["1", "1", "1", "1"]}}, "padding": {"s": "U0FNRQ=="}, "T": {"type": "DT_FLOAT"}, "use_cudnn_on_gpu": {"b": true}, "strides": {"list": {"i": ["1", "1", "1", "1"]}}}}, {"name": "StatefulPartitionedCall/Yolo_v4/leaky_152/LeakyRelu", "op": "LeakyRelu", "input": ["StatefulPartitionedCall/Yolo_v4/convn_152/BiasAdd"], "attr": {"alpha": {"f": 0.1}, "T": {"type": "DT_FLOAT"}}}, {"name": "Identity_1", "op": "Identity", "input": ["StatefulPartitionedCall/Yolo_v4/convn_149/BiasAdd"], "attr": {"T": {"type": "DT_FLOAT"}}}, {"name": "StatefulPartitionedCall/Yolo_v4/concat_153/concat", "op": "ConcatV2", "input": ["StatefulPartitionedCall/Yolo_v4/leaky_152/LeakyRelu", "StatefulPartitionedCall/Yolo_v4/leaky_116/LeakyRelu", "StatefulPartitionedCall/Yolo_v4/concat_153/concat/axis"], "attr": {"Tidx": {"type": "DT_INT32"}, "N": {"i": "2"}, "T": {"type": "DT_FLOAT"}}}, {"name": "StatefulPartitionedCall/Yolo_v4/convn_154/BiasAdd", "op": "_FusedConv2D", "input": ["StatefulPartitionedCall/Yolo_v4/concat_153/concat", "unknown_197", "unknown_198"], "device": "/device:CPU:0", "attr": {"epsilon": {"f": 0.0}, "strides": {"list": {"i": ["1", "1", "1", "1"]}}, "num_args": {"i": "1"}, "data_format": {"s": "TkhXQw=="}, "explicit_paddings": {"list": {}}, "T": {"type": "DT_FLOAT"}, "fused_ops": {"list": {"s": ["Qmlhc0FkZA=="]}}, "padding": {"s": "U0FNRQ=="}, "use_cudnn_on_gpu": {"b": true}, "dilations": {"list": {"i": ["1", "1", "1", "1"]}}}}, {"name": "StatefulPartitionedCall/Yolo_v4/leaky_154/LeakyRelu", "op": "LeakyRelu", "input": ["StatefulPartitionedCall/Yolo_v4/convn_154/BiasAdd"], "attr": {"T": {"type": "DT_FLOAT"}, "alpha": {"f": 0.1}}}, {"name": "StatefulPartitionedCall/Yolo_v4/convn_155/BiasAdd", "op": "_FusedConv2D", "input": ["StatefulPartitionedCall/Yolo_v4/leaky_154/LeakyRelu", "unknown_199", "unknown_200"], "device": "/device:CPU:0", "attr": {"explicit_paddings": {"list": {}}, "num_args": {"i": "1"}, "epsilon": {"f": 0.0}, "T": {"type": "DT_FLOAT"}, "data_format": {"s": "TkhXQw=="}, "fused_ops": {"list": {"s": ["Qmlhc0FkZA=="]}}, "use_cudnn_on_gpu": {"b": true}, "dilations": {"list": {"i": ["1", "1", "1", "1"]}}, "strides": {"list": {"i": ["1", "1", "1", "1"]}}, "padding": {"s": "U0FNRQ=="}}}, {"name": "StatefulPartitionedCall/Yolo_v4/leaky_155/LeakyRelu", "op": "LeakyRelu", "input": ["StatefulPartitionedCall/Yolo_v4/convn_155/BiasAdd"], "attr": {"T": {"type": "DT_FLOAT"}, "alpha": {"f": 0.1}}}, {"name": "StatefulPartitionedCall/Yolo_v4/convn_156/BiasAdd", "op": "_FusedConv2D", "input": ["StatefulPartitionedCall/Yolo_v4/leaky_155/LeakyRelu", "unknown_201", "unknown_202"], "device": "/device:CPU:0", "attr": {"use_cudnn_on_gpu": {"b": true}, "dilations": {"list": {"i": ["1", "1", "1", "1"]}}, "T": {"type": "DT_FLOAT"}, "epsilon": {"f": 0.0}, "num_args": {"i": "1"}, "padding": {"s": "U0FNRQ=="}, "data_format": {"s": "TkhXQw=="}, "strides": {"list": {"i": ["1", "1", "1", "1"]}}, "explicit_paddings": {"list": {}}, "fused_ops": {"list": {"s": ["Qmlhc0FkZA=="]}}}}, {"name": "StatefulPartitionedCall/Yolo_v4/leaky_156/LeakyRelu", "op": "LeakyRelu", "input": ["StatefulPartitionedCall/Yolo_v4/convn_156/BiasAdd"], "attr": {"alpha": {"f": 0.1}, "T": {"type": "DT_FLOAT"}}}, {"name": "StatefulPartitionedCall/Yolo_v4/convn_157/BiasAdd", "op": "_FusedConv2D", "input": ["StatefulPartitionedCall/Yolo_v4/leaky_156/LeakyRelu", "unknown_203", "unknown_204"], "device": "/device:CPU:0", "attr": {"padding": {"s": "U0FNRQ=="}, "strides": {"list": {"i": ["1", "1", "1", "1"]}}, "epsilon": {"f": 0.0}, "data_format": {"s": "TkhXQw=="}, "dilations": {"list": {"i": ["1", "1", "1", "1"]}}, "fused_ops": {"list": {"s": ["Qmlhc0FkZA=="]}}, "use_cudnn_on_gpu": {"b": true}, "explicit_paddings": {"list": {}}, "T": {"type": "DT_FLOAT"}, "num_args": {"i": "1"}}}, {"name": "StatefulPartitionedCall/Yolo_v4/leaky_157/LeakyRelu", "op": "LeakyRelu", "input": ["StatefulPartitionedCall/Yolo_v4/convn_157/BiasAdd"], "attr": {"T": {"type": "DT_FLOAT"}, "alpha": {"f": 0.1}}}, {"name": "StatefulPartitionedCall/Yolo_v4/convn_158/BiasAdd", "op": "_FusedConv2D", "input": ["StatefulPartitionedCall/Yolo_v4/leaky_157/LeakyRelu", "unknown_205", "unknown_206"], "device": "/device:CPU:0", "attr": {"T": {"type": "DT_FLOAT"}, "use_cudnn_on_gpu": {"b": true}, "dilations": {"list": {"i": ["1", "1", "1", "1"]}}, "padding": {"s": "U0FNRQ=="}, "epsilon": {"f": 0.0}, "num_args": {"i": "1"}, "fused_ops": {"list": {"s": ["Qmlhc0FkZA=="]}}, "data_format": {"s": "TkhXQw=="}, "strides": {"list": {"i": ["1", "1", "1", "1"]}}, "explicit_paddings": {"list": {}}}}, {"name": "StatefulPartitionedCall/Yolo_v4/leaky_158/LeakyRelu", "op": "LeakyRelu", "input": ["StatefulPartitionedCall/Yolo_v4/convn_158/BiasAdd"], "attr": {"alpha": {"f": 0.1}, "T": {"type": "DT_FLOAT"}}}, {"name": "StatefulPartitionedCall/Yolo_v4/convn_159/Conv2D", "op": "Conv2D", "input": ["StatefulPartitionedCall/Yolo_v4/leaky_158/LeakyRelu", "unknown_207"], "device": "/device:CPU:0", "attr": {"data_format": {"s": "TkhXQw=="}, "dilations": {"list": {"i": ["1", "1", "1", "1"]}}, "strides": {"list": {"i": ["1", "1", "1", "1"]}}, "padding": {"s": "U0FNRQ=="}, "use_cudnn_on_gpu": {"b": true}, "T": {"type": "DT_FLOAT"}, "explicit_paddings": {"list": {}}}}, {"name": "StatefulPartitionedCall/Yolo_v4/leaky_159/LeakyRelu", "op": "LeakyRelu", "input": ["StatefulPartitionedCall/Yolo_v4/convn_159/Conv2D"], "attr": {"alpha": {"f": 0.1}, "T": {"type": "DT_FLOAT"}}}, {"name": "StatefulPartitionedCall/Yolo_v4/convn_160/Conv2D", "op": "Conv2D", "input": ["StatefulPartitionedCall/Yolo_v4/leaky_159/LeakyRelu", "unknown_213"], "device": "/device:CPU:0", "attr": {"data_format": {"s": "TkhXQw=="}, "padding": {"s": "U0FNRQ=="}, "dilations": {"list": {"i": ["1", "1", "1", "1"]}}, "use_cudnn_on_gpu": {"b": true}, "strides": {"list": {"i": ["1", "1", "1", "1"]}}, "T": {"type": "DT_FLOAT"}, "explicit_paddings": {"list": {}}}}, {"name": "Identity_2", "op": "Identity", "input": ["StatefulPartitionedCall/Yolo_v4/convn_160/Conv2D"], "attr": {"T": {"type": "DT_FLOAT"}}}], "library": {}, "versions": {"producer": 440}}, "weightsManifest": [{"paths": ["group1-shard1of62.bin", "group1-shard2of62.bin", "group1-shard3of62.bin", "group1-shard4of62.bin", "group1-shard5of62.bin", "group1-shard6of62.bin", "group1-shard7of62.bin", "group1-shard8of62.bin", "group1-shard9of62.bin", "group1-shard10of62.bin", "group1-shard11of62.bin", "group1-shard12of62.bin", "group1-shard13of62.bin", "group1-shard14of62.bin", "group1-shard15of62.bin", "group1-shard16of62.bin", "group1-shard17of62.bin", "group1-shard18of62.bin", "group1-shard19of62.bin", "group1-shard20of62.bin", "group1-shard21of62.bin", "group1-shard22of62.bin", "group1-shard23of62.bin", "group1-shard24of62.bin", "group1-shard25of62.bin", "group1-shard26of62.bin", "group1-shard27of62.bin", "group1-shard28of62.bin", "group1-shard29of62.bin", "group1-shard30of62.bin", "group1-shard31of62.bin", "group1-shard32of62.bin", "group1-shard33of62.bin", "group1-shard34of62.bin", "group1-shard35of62.bin", "group1-shard36of62.bin", "group1-shard37of62.bin", "group1-shard38of62.bin", "group1-shard39of62.bin", "group1-shard40of62.bin", "group1-shard41of62.bin", "group1-shard42of62.bin", "group1-shard43of62.bin", "group1-shard44of62.bin", "group1-shard45of62.bin", "group1-shard46of62.bin", "group1-shard47of62.bin", "group1-shard48of62.bin", "group1-shard49of62.bin", "group1-shard50of62.bin", "group1-shard51of62.bin", "group1-shard52of62.bin", "group1-shard53of62.bin", "group1-shard54of62.bin", "group1-shard55of62.bin", "group1-shard56of62.bin", "group1-shard57of62.bin", "group1-shard58of62.bin", "group1-shard59of62.bin", "group1-shard60of62.bin", "group1-shard61of62.bin", "group1-shard62of62.bin"], "weights": [{"name": "unknown_211", "shape": [3, 3, 128, 256], "dtype": "float32"}, {"name": "unknown_212", "shape": [256], "dtype": "float32"}, {"name": "unknown_217", "shape": [1, 1, 256, 255], "dtype": "float32"}, {"name": "unknown_218", "shape": [255], "dtype": "float32"}, {"name": "unknown_209", "shape": [3, 3, 256, 512], "dtype": "float32"}, {"name": "unknown_210", "shape": [512], "dtype": "float32"}, {"name": "unknown_215", "shape": [1, 1, 512, 255], "dtype": "float32"}, {"name": "unknown_216", "shape": [255], "dtype": "float32"}, {"name": "unknown_171", "shape": [1, 1, 256, 128], "dtype": "float32"}, {"name": "unknown_172", "shape": [128], "dtype": "float32"}, {"name": "unknown_169", "shape": [1, 1, 256, 128], "dtype": "float32"}, {"name": "unknown_170", "shape": [128], "dtype": "float32"}, {"name": "StatefulPartitionedCall/Yolo_v4/upsamp_128/strided_slice/stack", "shape": [1], "dtype": "int32"}, {"name": "StatefulPartitionedCall/Yolo_v4/upsamp_128/strided_slice/stack_1", "shape": [1], "dtype": "int32"}, {"name": "StatefulPartitionedCall/Yolo_v4/upsamp_128/strided_slice/stack_2", "shape": [1], "dtype": "int32"}, {"name": "StatefulPartitionedCall/Yolo_v4/upsamp_128/Const", "shape": [2], "dtype": "int32"}, {"name": "StatefulPartitionedCall/Yolo_v4/concat_131/concat/axis", "shape": [], "dtype": "int32"}, {"name": "unknown_173", "shape": [1, 1, 256, 128], "dtype": "float32"}, {"name": "unknown_174", "shape": [128], "dtype": "float32"}, {"name": "unknown_175", "shape": [3, 3, 128, 256], "dtype": "float32"}, {"name": "unknown_176", "shape": [256], "dtype": "float32"}, {"name": "unknown_177", "shape": [1, 1, 256, 128], "dtype": "float32"}, {"name": "unknown_178", "shape": [128], "dtype": "float32"}, {"name": "unknown_179", "shape": [3, 3, 128, 256], "dtype": "float32"}, {"name": "unknown_180", "shape": [256], "dtype": "float32"}, {"name": "unknown_181", "shape": [1, 1, 256, 128], "dtype": "float32"}, {"name": "unknown_182", "shape": [128], "dtype": "float32"}, {"name": "StatefulPartitionedCall/Yolo_v4/zerop_141/Pad/paddings", "shape": [4, 2], "dtype": "int32"}, {"name": "unknown_183", "shape": [3, 3, 128, 256], "dtype": "float32"}, {"name": "unknown_184", "shape": [256], "dtype": "float32"}, {"name": "unknown_157", "shape": [1, 1, 512, 256], "dtype": "float32"}, {"name": "unknown_158", "shape": [256], "dtype": "float32"}, {"name": "unknown_155", "shape": [1, 1, 512, 256], "dtype": "float32"}, {"name": "unknown_156", "shape": [256], "dtype": "float32"}, {"name": "StatefulPartitionedCall/Yolo_v4/upsamp_118/strided_slice/stack", "shape": [1], "dtype": "int32"}, {"name": "StatefulPartitionedCall/Yolo_v4/upsamp_118/strided_slice/stack_1", "shape": [1], "dtype": "int32"}, {"name": "StatefulPartitionedCall/Yolo_v4/upsamp_118/strided_slice/stack_2", "shape": [1], "dtype": "int32"}, {"name": "StatefulPartitionedCall/Yolo_v4/upsamp_118/Const", "shape": [2], "dtype": "int32"}, {"name": "StatefulPartitionedCall/Yolo_v4/concat_121/concat/axis", "shape": [], "dtype": "int32"}, {"name": "unknown_159", "shape": [1, 1, 512, 256], "dtype": "float32"}, {"name": "unknown_160", "shape": [256], "dtype": "float32"}, {"name": "unknown_161", "shape": [3, 3, 256, 512], "dtype": "float32"}, {"name": "unknown_162", "shape": [512], "dtype": "float32"}, {"name": "unknown_163", "shape": [1, 1, 512, 256], "dtype": "float32"}, {"name": "unknown_164", "shape": [256], "dtype": "float32"}, {"name": "unknown_165", "shape": [3, 3, 256, 512], "dtype": "float32"}, {"name": "unknown_166", "shape": [512], "dtype": "float32"}, {"name": "unknown_167", "shape": [1, 1, 512, 256], "dtype": "float32"}, {"name": "unknown_168", "shape": [256], "dtype": "float32"}, {"name": "StatefulPartitionedCall/Yolo_v4/concat_142/concat/axis", "shape": [], "dtype": "int32"}, {"name": "unknown_185", "shape": [1, 1, 512, 256], "dtype": "float32"}, {"name": "unknown_186", "shape": [256], "dtype": "float32"}, {"name": "unknown_187", "shape": [3, 3, 256, 512], "dtype": "float32"}, {"name": "unknown_188", "shape": [512], "dtype": "float32"}, {"name": "unknown_189", "shape": [1, 1, 512, 256], "dtype": "float32"}, {"name": "unknown_190", "shape": [256], "dtype": "float32"}, {"name": "unknown_191", "shape": [3, 3, 256, 512], "dtype": "float32"}, {"name": "unknown_192", "shape": [512], "dtype": "float32"}, {"name": "unknown_193", "shape": [1, 1, 512, 256], "dtype": "float32"}, {"name": "unknown_194", "shape": [256], "dtype": "float32"}, {"name": "StatefulPartitionedCall/Yolo_v4/zerop_152/Pad/paddings", "shape": [4, 2], "dtype": "int32"}, {"name": "unknown_195", "shape": [3, 3, 256, 512], "dtype": "float32"}, {"name": "unknown_196", "shape": [512], "dtype": "float32"}, {"name": "unknown_119", "shape": [1, 1, 1024, 512], "dtype": "float32"}, {"name": "unknown_120", "shape": [512], "dtype": "float32"}, {"name": "unknown_121", "shape": [1, 1, 512, 512], "dtype": "float32"}, {"name": "unknown_122", "shape": [512], "dtype": "float32"}, {"name": "unknown_123", "shape": [3, 3, 512, 512], "dtype": "float32"}, {"name": "unknown_124", "shape": [512], "dtype": "float32"}, {"name": "unknown_125", "shape": [1, 1, 512, 512], "dtype": "float32"}, {"name": "unknown_126", "shape": [512], "dtype": "float32"}, {"name": "unknown_127", "shape": [3, 3, 512, 512], "dtype": "float32"}, {"name": "unknown_128", "shape": [512], "dtype": "float32"}, {"name": "unknown_129", "shape": [1, 1, 512, 512], "dtype": "float32"}, {"name": "unknown_130", "shape": [512], "dtype": "float32"}, {"name": "unknown_131", "shape": [3, 3, 512, 512], "dtype": "float32"}, {"name": "unknown_132", "shape": [512], "dtype": "float32"}, {"name": "unknown_133", "shape": [1, 1, 512, 512], "dtype": "float32"}, {"name": "unknown_134", "shape": [512], "dtype": "float32"}, {"name": "unknown_135", "shape": [3, 3, 512, 512], "dtype": "float32"}, {"name": "unknown_136", "shape": [512], "dtype": "float32"}, {"name": "unknown_137", "shape": [1, 1, 512, 512], "dtype": "float32"}, {"name": "unknown_138", "shape": [512], "dtype": "float32"}, {"name": "unknown_77", "shape": [1, 1, 512, 256], "dtype": "float32"}, {"name": "unknown_78", "shape": [256], "dtype": "float32"}, {"name": "unknown_79", "shape": [1, 1, 256, 256], "dtype": "float32"}, {"name": "unknown_80", "shape": [256], "dtype": "float32"}, {"name": "unknown_81", "shape": [3, 3, 256, 256], "dtype": "float32"}, {"name": "unknown_82", "shape": [256], "dtype": "float32"}, {"name": "unknown_83", "shape": [1, 1, 256, 256], "dtype": "float32"}, {"name": "unknown_84", "shape": [256], "dtype": "float32"}, {"name": "unknown_85", "shape": [3, 3, 256, 256], "dtype": "float32"}, {"name": "unknown_86", "shape": [256], "dtype": "float32"}, {"name": "unknown_87", "shape": [1, 1, 256, 256], "dtype": "float32"}, {"name": "unknown_88", "shape": [256], "dtype": "float32"}, {"name": "unknown_89", "shape": [3, 3, 256, 256], "dtype": "float32"}, {"name": "unknown_90", "shape": [256], "dtype": "float32"}, {"name": "unknown_91", "shape": [1, 1, 256, 256], "dtype": "float32"}, {"name": "unknown_92", "shape": [256], "dtype": "float32"}, {"name": "unknown_93", "shape": [3, 3, 256, 256], "dtype": "float32"}, {"name": "unknown_94", "shape": [256], "dtype": "float32"}, {"name": "unknown_95", "shape": [1, 1, 256, 256], "dtype": "float32"}, {"name": "unknown_96", "shape": [256], "dtype": "float32"}, {"name": "unknown_97", "shape": [3, 3, 256, 256], "dtype": "float32"}, {"name": "unknown_98", "shape": [256], "dtype": "float32"}, {"name": "unknown_99", "shape": [1, 1, 256, 256], "dtype": "float32"}, {"name": "unknown_100", "shape": [256], "dtype": "float32"}, {"name": "unknown_101", "shape": [3, 3, 256, 256], "dtype": "float32"}, {"name": "unknown_102", "shape": [256], "dtype": "float32"}, {"name": "unknown_103", "shape": [1, 1, 256, 256], "dtype": "float32"}, {"name": "unknown_104", "shape": [256], "dtype": "float32"}, {"name": "unknown_105", "shape": [3, 3, 256, 256], "dtype": "float32"}, {"name": "unknown_106", "shape": [256], "dtype": "float32"}, {"name": "unknown_107", "shape": [1, 1, 256, 256], "dtype": "float32"}, {"name": "unknown_108", "shape": [256], "dtype": "float32"}, {"name": "unknown_109", "shape": [3, 3, 256, 256], "dtype": "float32"}, {"name": "unknown_110", "shape": [256], "dtype": "float32"}, {"name": "unknown_111", "shape": [1, 1, 256, 256], "dtype": "float32"}, {"name": "unknown_112", "shape": [256], "dtype": "float32"}, {"name": "unknown_35", "shape": [1, 1, 256, 128], "dtype": "float32"}, {"name": "unknown_36", "shape": [128], "dtype": "float32"}, {"name": "unknown_37", "shape": [1, 1, 128, 128], "dtype": "float32"}, {"name": "unknown_38", "shape": [128], "dtype": "float32"}, {"name": "unknown_39", "shape": [3, 3, 128, 128], "dtype": "float32"}, {"name": "unknown_40", "shape": [128], "dtype": "float32"}, {"name": "unknown_41", "shape": [1, 1, 128, 128], "dtype": "float32"}, {"name": "unknown_42", "shape": [128], "dtype": "float32"}, {"name": "unknown_43", "shape": [3, 3, 128, 128], "dtype": "float32"}, {"name": "unknown_44", "shape": [128], "dtype": "float32"}, {"name": "unknown_45", "shape": [1, 1, 128, 128], "dtype": "float32"}, {"name": "unknown_46", "shape": [128], "dtype": "float32"}, {"name": "unknown_47", "shape": [3, 3, 128, 128], "dtype": "float32"}, {"name": "unknown_48", "shape": [128], "dtype": "float32"}, {"name": "unknown_49", "shape": [1, 1, 128, 128], "dtype": "float32"}, {"name": "unknown_50", "shape": [128], "dtype": "float32"}, {"name": "unknown_51", "shape": [3, 3, 128, 128], "dtype": "float32"}, {"name": "unknown_52", "shape": [128], "dtype": "float32"}, {"name": "unknown_53", "shape": [1, 1, 128, 128], "dtype": "float32"}, {"name": "unknown_54", "shape": [128], "dtype": "float32"}, {"name": "unknown_55", "shape": [3, 3, 128, 128], "dtype": "float32"}, {"name": "unknown_56", "shape": [128], "dtype": "float32"}, {"name": "unknown_57", "shape": [1, 1, 128, 128], "dtype": "float32"}, {"name": "unknown_58", "shape": [128], "dtype": "float32"}, {"name": "unknown_59", "shape": [3, 3, 128, 128], "dtype": "float32"}, {"name": "unknown_60", "shape": [128], "dtype": "float32"}, {"name": "unknown_61", "shape": [1, 1, 128, 128], "dtype": "float32"}, {"name": "unknown_62", "shape": [128], "dtype": "float32"}, {"name": "unknown_63", "shape": [3, 3, 128, 128], "dtype": "float32"}, {"name": "unknown_64", "shape": [128], "dtype": "float32"}, {"name": "unknown_65", "shape": [1, 1, 128, 128], "dtype": "float32"}, {"name": "unknown_66", "shape": [128], "dtype": "float32"}, {"name": "unknown_67", "shape": [3, 3, 128, 128], "dtype": "float32"}, {"name": "unknown_68", "shape": [128], "dtype": "float32"}, {"name": "unknown_69", "shape": [1, 1, 128, 128], "dtype": "float32"}, {"name": "unknown_70", "shape": [128], "dtype": "float32"}, {"name": "unknown_17", "shape": [1, 1, 128, 64], "dtype": "float32"}, {"name": "unknown_18", "shape": [64], "dtype": "float32"}, {"name": "unknown_19", "shape": [1, 1, 64, 64], "dtype": "float32"}, {"name": "unknown_20", "shape": [64], "dtype": "float32"}, {"name": "unknown_21", "shape": [3, 3, 64, 64], "dtype": "float32"}, {"name": "unknown_22", "shape": [64], "dtype": "float32"}, {"name": "unknown_23", "shape": [1, 1, 64, 64], "dtype": "float32"}, {"name": "unknown_24", "shape": [64], "dtype": "float32"}, {"name": "unknown_25", "shape": [3, 3, 64, 64], "dtype": "float32"}, {"name": "unknown_26", "shape": [64], "dtype": "float32"}, {"name": "unknown_27", "shape": [1, 1, 64, 64], "dtype": "float32"}, {"name": "unknown_28", "shape": [64], "dtype": "float32"}, {"name": "unknown_3", "shape": [1, 1, 64, 64], "dtype": "float32"}, {"name": "unknown_4", "shape": [64], "dtype": "float32"}, {"name": "unknown_5", "shape": [1, 1, 64, 32], "dtype": "float32"}, {"name": "unknown_6", "shape": [32], "dtype": "float32"}, {"name": "unknown_7", "shape": [3, 3, 32, 64], "dtype": "float32"}, {"name": "unknown_8", "shape": [64], "dtype": "float32"}, {"name": "unknown_9", "shape": [1, 1, 64, 64], "dtype": "float32"}, {"name": "unknown_10", "shape": [64], "dtype": "float32"}, {"name": "unknown", "shape": [3, 3, 3, 32], "dtype": "float32"}, {"name": "unknown_0", "shape": [32], "dtype": "float32"}, {"name": "StatefulPartitionedCall/Yolo_v4/zerop_1/Pad/paddings", "shape": [4, 2], "dtype": "int32"}, {"name": "unknown_1", "shape": [3, 3, 32, 64], "dtype": "float32"}, {"name": "unknown_2", "shape": [64], "dtype": "float32"}, {"name": "unknown_11", "shape": [1, 1, 64, 64], "dtype": "float32"}, {"name": "unknown_12", "shape": [64], "dtype": "float32"}, {"name": "StatefulPartitionedCall/Yolo_v4/concat_9/concat/axis", "shape": [], "dtype": "int32"}, {"name": "unknown_13", "shape": [1, 1, 128, 64], "dtype": "float32"}, {"name": "unknown_14", "shape": [64], "dtype": "float32"}, {"name": "StatefulPartitionedCall/Yolo_v4/zerop_11/Pad/paddings", "shape": [4, 2], "dtype": "int32"}, {"name": "unknown_15", "shape": [3, 3, 64, 128], "dtype": "float32"}, {"name": "unknown_16", "shape": [128], "dtype": "float32"}, {"name": "unknown_29", "shape": [1, 1, 128, 64], "dtype": "float32"}, {"name": "unknown_30", "shape": [64], "dtype": "float32"}, {"name": "StatefulPartitionedCall/Yolo_v4/concat_22/concat/axis", "shape": [], "dtype": "int32"}, {"name": "unknown_31", "shape": [1, 1, 128, 128], "dtype": "float32"}, {"name": "unknown_32", "shape": [128], "dtype": "float32"}, {"name": "StatefulPartitionedCall/Yolo_v4/zerop_24/Pad/paddings", "shape": [4, 2], "dtype": "int32"}, {"name": "unknown_33", "shape": [3, 3, 128, 256], "dtype": "float32"}, {"name": "unknown_34", "shape": [256], "dtype": "float32"}, {"name": "unknown_71", "shape": [1, 1, 256, 128], "dtype": "float32"}, {"name": "unknown_72", "shape": [128], "dtype": "float32"}, {"name": "StatefulPartitionedCall/Yolo_v4/concat_53/concat/axis", "shape": [], "dtype": "int32"}, {"name": "unknown_73", "shape": [1, 1, 256, 256], "dtype": "float32"}, {"name": "unknown_74", "shape": [256], "dtype": "float32"}, {"name": "StatefulPartitionedCall/Yolo_v4/zerop_55/Pad/paddings", "shape": [4, 2], "dtype": "int32"}, {"name": "unknown_75", "shape": [3, 3, 256, 512], "dtype": "float32"}, {"name": "unknown_76", "shape": [512], "dtype": "float32"}, {"name": "unknown_113", "shape": [1, 1, 512, 256], "dtype": "float32"}, {"name": "unknown_114", "shape": [256], "dtype": "float32"}, {"name": "StatefulPartitionedCall/Yolo_v4/concat_84/concat/axis", "shape": [], "dtype": "int32"}, {"name": "unknown_115", "shape": [1, 1, 512, 512], "dtype": "float32"}, {"name": "unknown_116", "shape": [512], "dtype": "float32"}, {"name": "StatefulPartitionedCall/Yolo_v4/zerop_86/Pad/paddings", "shape": [4, 2], "dtype": "int32"}, {"name": "unknown_117", "shape": [3, 3, 512, 1024], "dtype": "float32"}, {"name": "unknown_118", "shape": [1024], "dtype": "float32"}, {"name": "unknown_139", "shape": [1, 1, 1024, 512], "dtype": "float32"}, {"name": "unknown_140", "shape": [512], "dtype": "float32"}, {"name": "StatefulPartitionedCall/Yolo_v4/concat_103/concat/axis", "shape": [], "dtype": "int32"}, {"name": "unknown_141", "shape": [1, 1, 1024, 1024], "dtype": "float32"}, {"name": "unknown_142", "shape": [1024], "dtype": "float32"}, {"name": "unknown_143", "shape": [1, 1, 1024, 512], "dtype": "float32"}, {"name": "unknown_144", "shape": [512], "dtype": "float32"}, {"name": "unknown_145", "shape": [3, 3, 512, 1024], "dtype": "float32"}, {"name": "unknown_146", "shape": [1024], "dtype": "float32"}, {"name": "unknown_147", "shape": [1, 1, 1024, 512], "dtype": "float32"}, {"name": "unknown_148", "shape": [512], "dtype": "float32"}, {"name": "StatefulPartitionedCall/Yolo_v4/concat_113/concat/axis", "shape": [], "dtype": "int32"}, {"name": "unknown_149", "shape": [1, 1, 2048, 512], "dtype": "float32"}, {"name": "unknown_150", "shape": [512], "dtype": "float32"}, {"name": "unknown_151", "shape": [3, 3, 512, 1024], "dtype": "float32"}, {"name": "unknown_152", "shape": [1024], "dtype": "float32"}, {"name": "unknown_153", "shape": [1, 1, 1024, 512], "dtype": "float32"}, {"name": "unknown_154", "shape": [512], "dtype": "float32"}, {"name": "StatefulPartitionedCall/Yolo_v4/concat_153/concat/axis", "shape": [], "dtype": "int32"}, {"name": "unknown_197", "shape": [1, 1, 1024, 512], "dtype": "float32"}, {"name": "unknown_198", "shape": [512], "dtype": "float32"}, {"name": "unknown_199", "shape": [3, 3, 512, 1024], "dtype": "float32"}, {"name": "unknown_200", "shape": [1024], "dtype": "float32"}, {"name": "unknown_201", "shape": [1, 1, 1024, 512], "dtype": "float32"}, {"name": "unknown_202", "shape": [512], "dtype": "float32"}, {"name": "unknown_203", "shape": [3, 3, 512, 1024], "dtype": "float32"}, {"name": "unknown_204", "shape": [1024], "dtype": "float32"}, {"name": "unknown_205", "shape": [1, 1, 1024, 512], "dtype": "float32"}, {"name": "unknown_206", "shape": [512], "dtype": "float32"}, {"name": "unknown_207", "shape": [3, 3, 512, 1024], "dtype": "float32"}, {"name": "unknown_213", "shape": [1, 1, 1024, 255], "dtype": "float32"}]}]}
